gail_airl_ppo/init_model/actor_init.pt (torch, 50475 bytes, 29 tensors)

log_stds f4 [1, 2]
00000000: b550 98bf b731 91bf
-1.189963 -1.1343297

net.subgraph.layer_seq.glp_0.mlp.0.weight f4 [32, 5]
00000000: b588 253e f48e 2d3e 5eb3 61be 9b87 cebe
00000010: c0fa 6fbe fe1e af3d 04c1 ca3d f052 a93e
00000020: 6753 c43d 7a76 9e3e b59f 56bb 7ad1 443d
00000030: 03d7 bbbe c8b9 42be 0b33 03bf f51c 483d
00000040: 83d5 013e b9cc 983e b3bf e3be 5140 82be
00000050: 0b81 d13d 80d4 5a3e 15bc dabd 9ebf 5f3e
00000060: fa74 88be 015a 973d b98c c53e d3ac f0be
00000070: d9d5 95be 841b e2bc 476d 86bd 1e8b bd3e
00000080: 1e94 01be d518 5dbe bf0b e2be 450d dabe
00000090: 598c b0be 49e5 df3e c1cb 5b3e 5363 963e
000000a0: 60ea cc3d 42d7 4bbe 48fc bc3d 2165 c2be
000000b0: 740f a9be 1484 9abe 80a6 d53e 877f 953e
000000c0: 4a7d f6bd d7e5 103e 366a c33d 05bb 243f
000000d0: f54b af3b 951c 243e 6433 6e3e b7fd 4fbe
000000e0: 56a4 593e 0661 a4be 66f2 9fbe 6604 f9be
000000f0: 3da3 743e 7c75 2e3e b0b4 28be 010e 9d3d
00000100: db9a b83e 395a ca3c df6c 98bd aabd fe3d
00000110: b247 3b3e b44b a43e 2ad2 9abe 5259 54be
00000120: 80fa 803e 28fc a93e a36d 0b3f 7a61 763e
00000130: 4d22 123c 62b8 19bf e752 233e 362b 06bf
00000140: d60a 31bf 15fd 023f c5d2 8a3e 28d4 b1be
00000150: 17d3 8a3d 4429 c33b ef2a 46be b006 4abe
00000160: 7729 413c b21e bfbe c5c1 793e d4de fd3d
00000170: d76b 983e 084e 393c 3bf5 13bf 7e31 91be
00000180: c03f 423e a2b7 c33d 2d37 e3be c249 f3bd
00000190: 6c1b dc3e a4c8 f63e a70c 78be 53bf b3bc
000001a0: f17b cebe 1f90 e2bc fdd3 8bbe 4ed5 dcbe
000001b0: 3822 273d 212a 7a3d 1d64 27be eb37 b73e
000001c0: 26ab 2cbd d67c ef3e c518 f33e 1084 1dbd
000001d0: a274 3cbe d39a 713e c13c aa3c 6f47 853d
000001e0: db01 803e 6596 c43c 796e 97be 3a6a 403e
000001f0: 4406 28bf 6d42 82be 1971 acbd 3ddd 3dbe
00000200: 5e71 55be 1802 81be 8ceb 79be 31c8 813d
00000210: 7850 d2be 9ead 943c 3213 743e 8f7e 5ebd
00000220: 50ed e9bd cbb3 91bd 5a6a 62bd fa49 9b3e
00000230: da1e d73e 678c b93e 7934 c43e 92be 903d
00000240: 4fbb 71be e962 64be eaef 873e a446 ddbd
00000250: 324f 88be 0c6a 1cbf f923 e4be 2700 91be
00000260: 87f1 98be 63d5 cf3e dbc4 e43d 6aa9 aebe
00000270: 6c95 753e e94b dbbe 16dd 39bd 5e3d 82be
0.16165431 0.16949064 -0.2204108 -0.40337834 -0.23435497 0.08550833 0.09900096 0.3307109
0.0958622 0.30949765 -0.0032749001 0.048051335 -0.36687478 -0.19016182 -0.5124976 0.04885574
0.12679105 0.2984369 -0.44482192 -0.25439695 0.10229691 0.21370125 -0.10680405 0.2185044
-0.26651746 0.07390214 0.38583925 -0.47006854 -0.29264715 -0.027601011 -0.06563812 0.370202
-0.12654158 -0.21591504 -0.44149587 -0.4258825 -0.34482077 0.43729618 0.21464445 0.29372653
0.10005641 -0.19906333 0.09227806 -0.3796778 -0.33019602 -0.30178893 0.41728592 0.29198858
-0.12035616 0.14150177 0.095417425 0.6434787 0.005349631 0.16026528 0.23261791 -0.20311628
0.21254095 -0.32105273 -0.31239623 -0.48636168 0.23890395 0.17037004 -0.16475177 0.07668687
0.36055645 0.024701225 -0.074426405 0.12438519 0.18289068 0.32089007 -0.30238467 -0.20737198
0.25191116 0.33200192 0.5446417 0.24060622 0.008919311 -0.6004697 0.15949593 -0.52409685
-0.6915716 0.5116742 0.2711393 -0.34732175 0.067785434 0.005955847 -0.19352315 -0.19729114
0.011789671 -0.37328106 0.24390323 0.12396017 0.29769775 0.011310108 -0.57796067 -0.28358072
0.18969631 0.095565096 -0.44378033 -0.118793026 0.4298967 0.48199952 -0.24223576 -0.021941816
-0.40328935 -0.027656613 -0.27310172 -0.4313149 0.040804118 0.061075334 -0.16346784 0.3578485
-0.042155407 0.4677493 0.47479835 -0.038456023 -0.18403867 0.23594217 0.020780923 0.065077655
0.25001416 0.023997495 -0.2957647 0.18790522 -0.6563456 -0.25441304 -0.08420009 -0.18541427
-0.20844027 -0.2519691 -0.2440626 0.063370116 -0.41077018 0.018149193 0.23835447 -0.054319914
-0.11422217 -0.07114371 -0.055277206 0.30329877 0.42015725 0.3623993 0.38321283 0.070675984
-0.23606609 -0.22303356 0.26550227 -0.10804489 -0.2662292 -0.61099315 -0.44558695 -0.2832043
-0.2987177 0.4059249 0.1117036 -0.34113628 0.23982781 -0.42831352 -0.04537686 -0.25437444

net.subgraph.layer_seq.glp_0.mlp.0.bias f4 [32]
00000000: c16e 2bbe 6235 b6bd c5e9 b5be acf7 87be
00000010: 8a7d 8a3d df76 7bbd 3103 83be d094 233e
00000020: cbbb a6be 9805 ca3c 0d6c ba3e 6132 8ebd
00000030: 5906 c23e 2ab5 543e 4477 8dbe 7fbb 453e
00000040: 582d 303d 1e5a 1dbe 8902 ad3e 597d a6be
00000050: 27a8 483c 982f 8abd e795 913e c742 433e
00000060: 08b7 7c3e bc40 2a3e 72e9 8abd de3a 893d
00000070: b8eb 9fbe 731b 4d3e daea a33e b162 933e
-0.16741468 -0.08896901 -0.35529914 -0.26556146 0.06762226 -0.06139266 -0.25588372 0.15974736
-0.3256515 0.02466087 0.3641056 -0.06943203 0.37895468 0.20772234 -0.27630055 0.19309805
0.043011993 -0.15366408 0.33790997 -0.32517508 0.012247122 -0.06747359 0.2843468 0.19068442
0.24679196 0.16626257 -0.067828074 0.06700681 -0.31234527 0.20030002 0.32015115 0.28786233

net.subgraph.layer_seq.glp_0.mlp.1.weight f4 [32]
00000000: 2ca1 853f 3b32 893f 20e5 6f3f f641 8d3f
00000010: cf24 703f 48e5 7f3f b4bb 6e3f bfce 873f
00000020: 462d 823f 20da 953f ba30 813f b32e 703f
00000030: b113 813f 61b7 813f adc2 8c3f 1ebc 853f
00000040: e0bb 933f 5bbf 8a3f a549 833f 8a8c 9c3f
00000050: 3b75 8c3f 8ab9 783f c5d2 803f b2e1 863f
00000060: d3ef 8c3f 502f 783f ecab 893f e448 843f
00000070: 11dd 843f a362 773f ba32 813f 11b3 703f
1.0439811 1.0718454 0.9370899 1.1035755 0.93806165 0.9995923 0.9325516 1.0609969
1.0170066 1.1707191 1.0092995 0.9382126 1.0084134 1.0134088 1.099691 1.0448034
1.154171 1.0839647 1.025685 1.2230389 1.0973276 0.9715811 1.0064322 1.0537627
1.1010689 0.96947193 1.0755591 1.0334744 1.0379964 0.9663488 1.0093606 0.94023234

net.subgraph.layer_seq.glp_0.mlp.1.bias f4 [32]
00000000: 3fa0 8fbc 8973 383c df85 32be da2e 2f3d
00000010: f30f a33d 279f 82bd 2460 06be f9b1 0fbd
00000020: 3276 bd3d f192 3b3d 7c7e 18bd 1750 e9bd
00000030: f2bd 39bc 2a94 c53c 04f4 d03d e37a b1bd
00000040: de8a eabb 8f39 a0bd 8d39 69bd bd2a 2dbd
00000050: fc38 253c 6738 8c3b 3c21 b93b e6a7 433d
00000060: 4282 8e3c 4b63 0abd d9ba 8a3d 2cdb 993d
00000070: a6c4 d93c 4e7e 75bd 734e f13a 923b 85bc
-0.017532466 0.0112580145 -0.1743388 0.04276929 0.079620264 -0.06378012 -0.13122612 -0.035081837
0.092510596 0.04579443 -0.03723 -0.11392229 -0.01133679 0.024118502 0.10202792 -0.08666017
-0.0071576675 -0.078234784 -0.05693965 -0.042277087 0.010084387 0.0042791846 0.005649714 0.047767542
0.017396096 -0.0337861 0.067739196 0.07512507 0.026583027 -0.059934907 0.001841022 -0.016263757

net.subgraph.layer_seq.glp_0.mlp.3.weight f4 [5, 32]
00000000: 891d 68be a228 afbc 5f4e 21be c37d 2ebe
00000010: cffb 19be f56c e13d 67e3 91bd f1d0 c1bc
00000020: b5db d4bd 8f32 8a3d 98f1 3bbe 8172 7cbd
00000030: c446 17be b2f1 043e 1d9d 81bc b9a8 7a3d
00000040: ea93 773d f48b e03d b6e4 2cbd e6e7 27be
00000050: 5a44 a2bd 9dde 29bd 9f6c 23bc 1991 bd3c
00000060: a735 55be ed4e 7ebd 8eb4 6f3e 7085 ffbd
00000070: 8e21 01bd e06b 233e f695 ce3d 44e9 443d
00000080: 5c59 0abe 0895 ce3d 8419 a3bd 92b7 1abe
00000090: ab4e 493b 887d 833d db7a 453d 9a12 313e
000000a0: ea17 cfbc d5b7 633e d892 a83d 39ea 03be
000000b0: e83c 4a3d 50ab ddbd 46d2 613d c9d5 07be
000000c0: 8abf 1a3e d32a 7c3e 4337 26be 84de 823d
000000d0: a89f 8e3d 851f 44be a3cc 383e 367f 11be
000000e0: 9b40 e7bd 0e9d 5abd 95d7 a4bd 149a 1f3d
000000f0: 9907 133e 2385 7bbd 7994 d2bd f480 99bd
00000100: 97c8 17be 638a 083e c3f5 98bd 9fdb 38be
00000110: 773d 53ba bb95 523e 0f88 a6bd d300 453e
00000120: 42b3 9b3d 32c1 80bd 98c3 803c 1002 76bc
00000130: 714e 5a3e 5052 033e d18b 2abe 0b15 acbd
00000140: ebdd 99be eae7 633d 60ff 81bd 216a 88be
00000150: 1a40 8b3e acdc c1bc 2792 b8bc c254 093e
00000160: f5fe 203d 0d8e 94bd 2bf8 47be 02ec 773e
00000170: 238c b83d f62c 223e 7494 0bbd 9e7a 503c
00000180: 526c f63d 344c 1bbe d148 21bc cb6d 703d
00000190: b290 cd3c ae9d 66bd 13c7 623d ba56 50be
000001a0: 03c8 ad3d f338 c5be 59a9 413c 5cd4 a33d
000001b0: 138e babd b3f5 87bd 6c38 4fbe 1a0b 273e
000001c0: 34f9 39be d958 92be dd63 12bb 6e7e 5d3e
000001d0: 67d6 973d 31f6 323d 8d6c 1fbe 17ca a8bd
000001e0: 7992 183e 1339 09bc 5bb7 493e bafa 90bb
000001f0: 8172 0dbe e1c9 e4bc c828 023e 453f 413d
00000200: 8a0d 943d 51e7 403d 19d5 eebd 3919 bb3d
00000210: 3f4d b63d eda1 d4bc 5723 d03d 3176 283c
00000220: a6f7 333e f671 3cbe 854e 48be 4d7a f8bd
00000230: e599 303e 39a1 073e b22d 80be e40d 0d3e
00000240: c9a9 1f3e ba38 de3d bcdc 2f3e 54ba b63e
00000250: c1c1 28be f6cf 623d f2e6 9b3d 63ca 0a3e
00000260: 963e 8fbd ae69 343e cf64 a53d c1c0 4e3e
00000270: 6dd8 c0bd 4d4b fcbc 8b80 6fbd 876b 993d
-0.22667517 -0.02138168 -0.15752552 -0.17040162 -0.15037464 0.1100711 -0.07123452 -0.023659201
-0.10393468 0.067479245 -0.1835388 -0.061632637 -0.14773089 0.12982824 -0.015821988 0.061196063
0.060443796 0.10964194 -0.042210303 -0.16397056 -0.07923193 -0.041472066 -0.009974628 0.023140477
-0.20821248 -0.06208699 0.2340872 -0.12476623 -0.03152614 0.1595912 0.100871965 0.048074022
-0.1351065 0.10087019 -0.07963851 -0.15109089 0.0030717056 0.064204276 0.048212867 0.17292252
-0.025279958 0.22238095 0.08231133 -0.12882318 0.04937449 -0.10823691 0.055132173 -0.13265146
0.15112129 0.24625711 -0.16232018 0.06390098 0.06964046 -0.19152649 0.18046813 -0.14208683
-0.112916194 -0.053372435 -0.080489315 0.0389653 0.14358367 -0.061406266 -0.10282225 -0.07495299
-0.14822613 0.1333404 -0.0746875 -0.18052529 -0.000805817 0.2056493 -0.0813142 0.19238596
0.0760255 -0.06286849 0.015718266 -0.01501514 0.21318986 0.12824368 -0.16654898 -0.08402451
-0.30052122 0.055641092 -0.06347537 -0.2664347 0.27197343 -0.023664795 -0.022530628 0.13411239
0.039305646 -0.072536565 -0.19528262 0.24211124 0.09011104 0.15837464 -0.034077123 0.012724547
0.12032379 -0.15165788 -0.009844021 0.058698457 0.02509341 -0.05630272 0.055365633 -0.20345584
0.08485415 -0.3852001 0.011820161 0.07999489 -0.0910913 -0.0663866 -0.20236367 0.16312829
-0.1816147 -0.2858341 -0.0022337355 0.2163026 0.07413941 0.043691818 -0.15568753 -0.082416706
0.14899625 -0.008375424 0.19698851 -0.00442442 -0.13813211 -0.027928295 0.1271087 0.04717948
0.07229145 0.0470956 -0.11661739 0.0913567 0.08901452 -0.025956118 0.101629905 0.010282085
0.17574939 -0.18402848 -0.19561203 -0.12132702 0.17246206 0.13245095 -0.25034863 0.1377483
0.15592112 0.108506635 0.17174047 0.35689032 -0.16480161 0.05537411 0.07612409 0.13553767
-0.06994359 0.17618439 0.08075868 0.20190717 -0.0941628 -0.030797625 -0.058472198 0.07491212

net.subgraph.layer_seq.glp_0.mlp.3.bias f4 [5]
00000000: e704 3bbd 1ea7 303d c8b2 653d 3e5f 843d
00000010: 8785 8fbd
-0.045658972 0.043128125 0.056078702 0.064634785 -0.0700789

net.subgraph.layer_seq.glp_1.mlp.0.weight f4 [32, 10]
00000000: d784 873d 7943 77be 25a4 0c3e 02cb e1bb
00000010: 0861 92be af79 9dbe 73af 653e fd4d b93d
00000020: 49df e53e 8d48 6d3e bbe7 77be 4465 d5bd
00000030: 3d0e 03be 1a61 8fbe a382 323e 04bc 7bbe
00000040: 2c91 dabd 2357 c6be d7db f4bd 4d15 863e
00000050: bb53 133e 1860 653e e9fd 9b3e a9c4 ad3e
00000060: 1937 97bd f609 32bd d882 dc3e bff3 b53d
00000070: e602 a23e ce1f a33d b854 6b3e 5b7a d1bd
00000080: 39d0 0c3e 95be b53c 854a bbbd 4350 19be
00000090: b3cd 32be 9c42 c0be 58b9 9d3e 62ee 6a3e
000000a0: e398 0dbe 45bb 9ebe 7400 863e ebff 9c3e
000000b0: 4630 813d 8062 75be 1b17 353e 49d8 ed3e
000000c0: a694 d1be dc02 d93e 8e1d 983d 0631 04be
000000d0: 1288 8a3e 2930 c5bd d5a7 013d a7d1 063e
000000e0: 8faa 743e f743 57be e174 f0bd d593 37be
000000f0: 97e5 84bd 69c0 703c 91b6 7d3e 885e 513e
00000100: 262f 6fbe 35ec b8bd 29b4 573e 61e8 8b3e
00000110: fca2 8fbe 71e5 b63d d640 31be 644b a1bd
00000120: 9f50 7c3d 10dd 40be 3a5f 9cbc 43a3 c33e
00000130: e5a2 2d3e 15fe b9be 576a cfbd 1ae7 963d
00000140: 6e7b 49be 9b1b bb3e af81 6ebe a475 d6be
00000150: c454 78be 6080 febd f8d7 913e 60fd c5bd
00000160: 8441 503e e7eb 65bb 9939 0abd fa4e bd3c
00000170: a433 49be 239c 883e 4489 9d3e 1324 9a3e
00000180: f563 a43d 8b9a 90be 8736 6d3e e2f5 87bc
00000190: 95f2 7ebd 30eb 73be 040d e33d cc9e 90be
000001a0: 6c76 303d 2a31 2dbd 3426 9ebe 8611 f73d
000001b0: 17a1 bb3e 288b 0f3e 0ba3 f6bd 002b d0be
000001c0: 02c3 82be 39a4 b73e 382e 8c3e a997 f13d
000001d0: f9ff 743c 549a 963e 89c5 c2be 7612 03be
000001e0: c422 763e 8e43 abbe 0eed 403e 806b 80be
000001f0: a256 72bd 12c3 07be 8291 2f3d f77a cabc
00000200: 750f 233e 2c5e 4b3e 4218 dc3d f211 3abd
00000210: 17ff 2dbd 1312 9bbd 7840 8e3d e043 4a3e
00000220: d355 9dbe a403 273e 3cdb 72bc bea3 94be
00000230: 3659 3fbe b7a1 2e3e 4815 963e 9d4b 16be
00000240: 87a9 163e 5a47 883d aa74 ac3d 0416 ee3e
00000250: 17fa 3dbd c7c8 813e 4bf1 6a3e c382 e3bd
00000260: 34e1 193e ca9e 58be ce5e 253e 546b 11be
00000270: 406c ffbd 3799 54be 9f11 8e3e cdbd 91be
00000280: 78d5 0b3e 3e83 8a3e be42 303c 43bc 91bd
00000290: a65b 26bd c145 9e3e 3913 98be 7e35 01be
000002a0: d3a5 79be 71db ce3e 07b3 dd3c a9e5 793c
000002b0: 4572 37be 1577 8a3e 2f06 4d3e 90ca 34be
000002c0: 48b2 8cbe ba2a adbe 34a9 9dbc 5a7e 3cbe
000002d0: af91 afbe d634 3bbe eeda 333e 71c8 c3bd
000002e0: 0220 4c3e 9843 0fbe dfbf 20be 9a8e 373d
000002f0: 8669 8e3e e76d 6bbe c6cd 153d 8644 0c3c
00000300: 75aa b63e 077d 01bf 3b58 8bbe 4d27 bc3e
00000310: da05 31bd d36b fdbb cda2 243c 89ee 8ebe
00000320: e874 3fbe cf54 5d3e a80c b73d 020f 01be
00000330: 64a9 4ebc 7421 3dbd 59e7 ef3d 8988 9bbe
00000340: 844c c03e df86 8fbd f768 a33c d148 923d
00000350: 673d 8f3d 5eff a23e 6098 2e3e e248 8e3d
00000360: e25a c5be ce7d 6abc 2667 613e eb87 03be
00000370: 570b 5dbe 5a6d bb3e d74f bc3e f110 c0be
00000380: caca 7fbe 2292 9cbe eff3 413e 1191 893d
00000390: 517e 4cbe e8c4 3d3e 6f23 5c3c 0ca5 043e
000003a0: 54f1 de3e 7ed6 f83d 68c2 92bd b43c 8bbe
000003b0: d3e8 9e3e e4c7 ad3d 5787 1a3e 359f a3be
000003c0: 1923 693e a38b 9b3e b633 853e 70d2 81be
000003d0: d6ed 00be 09ed 46be 9ce8 3f3e ef89 b7be
000003e0: eb8e b33d 41ff 6a3e 37d8 b2be 4d0b d5bd
000003f0: 6945 533e 87f1 73bc ed74 36be d83d 323e
0.06617134 -0.24146833 0.13734491 -0.0068906555 -0.28589654 -0.307569 0.2243021 0.09048078
0.44896916 0.23172207 -0.24209492 -0.104197055 -0.127984 -0.2800377 0.17432646 -0.24583441
-0.106722206 -0.38738355 -0.119559936 0.26188126 0.1438741 0.22399938 0.30467156 0.33939102
-0.07383556 -0.04346653 0.43068576 0.088843815 0.31642836 0.07965051 0.22981536 -0.102284156
0.13751306 0.022185603 -0.09145073 -0.14972024 -0.1746128 -0.3755082 0.3080547 0.22942498
-0.13827853 -0.3100225 0.2617222 0.30664 0.063080356 -0.23963356 0.17684595 0.46454075
-0.40933722 0.42384994 0.07427512 -0.12909326 0.27056938 -0.096283264 0.031654198 0.13165914
0.23893188 -0.2102202 -0.11741043 -0.17927487 -0.06489103 0.014694312 0.24776675 0.20446217
-0.2335783 -0.09029428 0.2106482 0.2732573 -0.28054035 0.08930481 -0.17309889 -0.07875708
0.061600324 -0.18834329 -0.019088376 0.38210496 0.1695667 -0.36326662 -0.101277046 0.07368298
-0.19675991 0.365445 -0.23291658 -0.41886628 -0.24251086 -0.12426829 0.28485084 -0.09667468
0.20337492 -0.0035083236 -0.033746336 0.023108948 -0.19648606 0.26681623 0.30768788 0.30105647
0.08026878 -0.28242907 0.23165332 -0.016596738 -0.062243063 -0.23820186 0.11086467 -0.28246152
0.043081686 -0.042283215 -0.30888522 0.12063889 0.3664634 0.14017928 -0.12042817 -0.40657806
-0.25539404 0.3586748 0.27379012 0.11796505 0.014953607 0.29414618 -0.38041332 -0.12800011
0.240367 -0.33449978 0.18840429 -0.25082016 -0.05916465 -0.13258007 0.042863376 -0.024716837
0.15923865 0.19860142 0.10746814 -0.04542727 -0.0424796 -0.07571807 0.0694589 0.19752455
-0.3072954 0.16309983 -0.014822777 -0.29031175 -0.18686375 0.17053877 0.2931311 -0.14677282
0.14713107 0.06654234 0.084206894 0.46501172 -0.046381082 0.25348493 0.22943608 -0.11108925
0.15027314 -0.21154323 0.16149446 -0.14201099 -0.12471819 -0.20761572 0.2774782 -0.2846512
0.1365565 0.27053255 0.0107581 -0.07115986 -0.040614747 0.30912593 -0.29702166 -0.12618062
-0.24379663 0.40401796 0.027062906 0.015252509 -0.17914684 0.27043977 0.2002189 -0.17655396
-0.27479768 -0.3382166 -0.019245721 -0.18407574 -0.34290835 -0.18281874 0.17563984 -0.095597155
0.19934085 -0.13990629 -0.15698193 0.04481373 0.27814883 -0.22991143 0.036573194 0.008561259
0.35676923 -0.505814 -0.27215752 0.36748734 -0.04321847 -0.007733801 0.01004858 -0.27916363
-0.1869694 0.21614383 0.08937961 -0.12603381 -0.012613628 -0.04617448 0.11714048 -0.30377606
0.37558377 -0.070081465 0.019947512 0.07142795 0.069941334 0.31835455 0.17050314 0.06947495
-0.385459 -0.014312221 0.22012004 -0.12844817 -0.21586357 0.36606866 0.36779663 -0.37512925
-0.24979702 -0.3058024 0.1894071 0.06717122 -0.19970061 0.18532145 0.013436182 0.12953585
0.43543494 0.12150286 -0.07165986 -0.2719475 0.31037006 0.08485392 0.1509069 -0.31957403
0.22767295 0.30379972 0.26016015 -0.25355864 -0.12590727 -0.19426359 0.18741077 -0.35847422
0.08767494 0.22948934 -0.34930584 -0.10402546 0.20631947 -0.014889128 -0.17818041 0.17406404

net.subgraph.layer_seq.glp_1.mlp.0.bias f4 [32]
00000000: 2c29 03bc 04c5 643e 9443 e7bc 52f1 9b3e
00000010: 37df 00be eca3 2c3d e33e 54bd df90 833d
00000020: 3af8 303e f6e1 a73d 22f5 40bb 457b ae3c
00000030: e088 b53d b762 593e f984 5ebe bd74 ea3d
00000040: b18b 963e 38ee 11bd 7cc2 3cbe 68e6 893e
00000050: 8c41 a8bd 566b 66bd 9fc4 4e3d 4fb6 7dbc
00000060: 8011 c53d f417 86bd 874b 993d 9049 01be
00000070: e7e3 c9bd 2bf6 ea3d 3587 343e 380b 7fbd
-0.008005422 0.2234078 -0.028230466 0.3045755 -0.1258515 0.042148516 -0.051817786 0.06424116
0.17282191 0.081973955 -0.0029442986 0.021299014 0.088639975 0.21229063 -0.21730413 0.11448047
0.2940345 -0.035627574 -0.18433565 0.269336 -0.08215627 -0.056254707 0.05048048 -0.01548536
0.096224785 -0.065475374 0.07485109 -0.12625718 -0.09857922 0.11472734 0.17629702 -0.06226656

net.subgraph.layer_seq.glp_1.mlp.1.weight f4 [32]
00000000: f388 863f 8e64 893f ab55 923f 4e56 8f3f
00000010: 902b 9b3f 8c26 8d3f f968 933f f9b3 7b3f
00000020: 1db6 8e3f ca9a 953f b1ca 893f 3d67 933f
00000030: 80d1 8e3f caf5 913f b89d 8a3f 3b15 963f
00000040: 92ae 983f da4a 833f 9813 973f 47e2 953f
00000050: 9174 7d3f 9d23 853f fc5b 8f3f f743 893f
00000060: aeaa 783f 1648 9a3f aa94 8f3f bf67 8f3f
00000070: 6232 8d3f 7abb 8d3f 26ab 8b3f d6bb 973f
1.0510544 1.0733812 1.1432394 1.1198213 1.2122669 1.1027389 1.151641 0.9832149
1.1149327 1.1687863 1.0764982 1.1515881 1.1157684 1.1403134 1.0829382 1.1725229
1.1928275 1.0257218 1.1802855 1.1709679 0.9900599 1.0401493 1.1199946 1.0723866
0.97135437 1.2053249 1.1217244 1.1203536 1.1031001 1.1072838 1.0911605 1.1854198

net.subgraph.layer_seq.glp_1.mlp.1.bias f4 [32]
00000000: 3ef6 87bc 8f71 be3d b136 aa3c 77d6 a23d
00000010: 9793 1a3e e6be 2fbd 5f11 80bb 9bd1 f83a
00000020: ec47 b23a 58b6 0c3e d70a 123e a034 223d
00000030: d455 d23c be5f 033e 1358 2a3d 1190 5e3c
00000040: 294e 853d 5dd5 74bc ac51 e33d 0644 b03d
00000050: dd48 2fbd 6638 68bd 7312 bd3d 37da 033c
00000060: df83 93bc 8b14 543d 6a32 503d 235f 4a3d
00000070: d5cd 0ebd ac64 35bd aabf a8bd 6e5c 103d
-0.01659691 0.09299003 0.020778032 0.07951062 0.15095364 -0.042906664 -0.003908321 0.0018983366
0.0013601757 0.13741434 0.14261948 0.03960097 0.025675692 0.12829491 0.0415879 0.013584153
0.065090485 -0.014943448 0.11099562 0.086067244 -0.042794097 -0.05669441 0.092320345 0.008047632
-0.018007217 0.051777404 0.05082933 0.049407136 -0.034864265 -0.04428546 -0.08239682 0.035244398

net.subgraph.layer_seq.glp_1.mlp.3.weight f4 [10, 32]
00000000: a726 18bd 7771 cbbb 82ea 91be 5428 3bbe
00000010: 6e2b 5fbe 19a7 a3bb af3e 74be 0ccc c63a
00000020: f033 413e 6aa6 f03d f34f 8ebc 70e1 203e
00000030: 9f10 7dbe 630a a63d 70f4 f8ba d701 e8bd
00000040: 0153 6f3e 7a5c 0a3e 2c94 a0be 30e5 433e
00000050: ece7 8fbd 4e80 d2bc 8e0a 303e e6ca 18be
00000060: bd4e 1e3e 93a9 eebe f895 8d3e ec67 0bbd
00000070: 4a44 44be 2367 3ebc 2edc 8cbe 7622 bdbe
00000080: a255 71bd 7142 3f3e 6cf5 2dbd bdb6 e13d
00000090: 8b69 833e 52f2 a9bb 2f8b 233d 8862 363d
000000a0: 8b1b 40bd f5bc 23be cd96 81bd 98db 3d3e
000000b0: 222d 483e 71ad 123e fb94 ad3d 55f3 773d
000000c0: 2f97 7c3e cf17 99bd c1ad 9abd 0f65 d43d
000000d0: 105c 7e3d ef30 c5bd 39f6 5d3e ffe9 07bc
000000e0: 2c56 6bbd e4c2 cbbd a4e3 983e 2419 67bd
000000f0: 584c d03c 0931 393e a166 05be 28d5 de3c
00000100: 4e45 603e 5973 ba3d 0067 8abc 5d47 6e3e
00000110: 94f5 4abe 17c4 ca3e 6107 e2be f778 75be
00000120: 828b 823e 1b13 2c3d f935 cbbd 5f58 4cbe
00000130: 50d5 6f3d 9c24 443e bddd 82be 09c0 1b3e
00000140: e3ec a83d d70f a2bb ef7e b5bd 3533 a73e
00000150: f7cb f93d 6c0f 91bd 1848 6abd ea2a f9bb
00000160: eff2 53be 0470 19be adc0 34bc 7575 bbbd
00000170: 96c2 24be c274 8f3d aca7 9d3c 2904 48be
00000180: fd8c 683d 0fe2 773e 96b3 b7be 1e6c f23d
00000190: 5760 f7bd 7264 443e 62c2 9cbd b92a d83d
000001a0: 77b1 9cbd b8ed 783e bf96 543e 84b2 44bb
000001b0: 5d99 3b3e 62e8 d93d 0982 6c3b a837 b73e
000001c0: 013e ab3d a7eb 523e 8ab5 0e3e 8316 f63d
000001d0: 51f3 d2bc 07bb 833d 407b 31bd 98eb 4d3c
000001e0: f882 fa3d 4f4c f83d 49da 633d 7d79 e53d
000001f0: 50b0 233d f407 adbe 1a59 793e c817 a0bc
00000200: 8e29 38be e28c 06be 94f7 3fbd bbcf 89ba
00000210: 7f48 0c3e 3d0a 3e3d fadd a3bd 3557 f8bb
00000220: 52cf 43be 19d3 c33d 1234 893e 388f 033d
00000230: accf 2d3d c710 033e 8850 bc3d de3e 3a3a
00000240: 064e f3bd d272 b33d 721d bebe 87a8 0abd
00000250: 22d9 b4be f89f 1c3e e041 a9be a4c2 9abd
00000260: e278 dcbb d3ee 6abe caba a6bc 30b2 2c3e
00000270: 9401 17be d176 0d3d af1e 563d bc7f 123e
00000280: a403 d83d 9c6f bd3a 08d2 c63d cafd 58be
00000290: a4e6 9c3d 8bfc 84bd bfed fd3d 7b7f 0f3e
000002a0: e6e1 523e 4111 abbe 5571 a43c 2ab4 3bbe
000002b0: f1ec 77bd af2e 22be a8d2 893e 90d4 1c3e
000002c0: 5cdc f53d c02c da3c c9f0 8ebe 3f59 bb3d
000002d0: 068e 263e a544 0bbe d610 633e cc8b ac3c
000002e0: 510a 4a3d 5c43 3e3d ea78 293e 1eac c2be
000002f0: d4f3 dabd f475 303e e1a1 1b3c 8dbc 6b3e
00000300: f812 2f3e f196 5f3e 2e62 003e 31e9 3a3e
00000310: fe77 a7bc 530f 02be 1c66 5abc d47b 09bd
00000320: 7671 58bd a2c3 333e 622a 0a3e de57 0d3d
00000330: 0477 0c3e f2ee 753e bb6e 6b3c 8408 5abd
00000340: 6944 53bb ec70 e03c cf55 433e 465c 103e
00000350: a343 11be e125 87be 7894 303e 7472 123e
00000360: b984 99bd c88a c4bd 478d 8ebd 5103 473e
00000370: 17bd 163e 317f 453e 7c9e 11be 9259 82bd
00000380: 1842 743e 50b4 5d3e 5e3f 7d3e 712d 243e
00000390: 394b 90bc 3211 493e d554 54be ff58 2d3d
000003a0: 05b5 433d d3f6 063d fab9 eb3d 61da 293c
000003b0: 32ed c63d f248 fbbc 8848 7cbd 5e09 073e
000003c0: 3691 823d 38fb 99bd 8d8e 63bd 83a9 a0bd
000003d0: dbd4 74bd 3cae bc3d bbf4 403e 589b 503e
000003e0: b180 9fbc 971a ffbd a4dd 143e 597d 05be
000003f0: a212 9e3d 74f0 593e 14f3 6cbe cfb5 71be
-0.037146237 -0.0062085944 -0.28499228 -0.18277103 -0.21793911 -0.004994285 -0.23852037 0.0015167012
0.18867469 0.11750491 -0.017372107 0.15710998 -0.24713372 0.0810745 -0.0018993746 -0.11328476
0.23371507 0.1351184 -0.31363046 0.19130397 -0.070266575 -0.025695946 0.17191526 -0.1492115
0.15459724 -0.4661375 0.2765348 -0.034034654 -0.19166675 -0.011621269 -0.27511734 -0.36940354
-0.058919556 0.18677689 -0.04247038 0.11021183 0.2566646 -0.0051863575 0.039927658 0.04452756
-0.046901267 -0.1599005 -0.06327591 0.185408 0.19548467 0.14323975 0.084756814 0.060534794
0.24667047 -0.07475244 -0.07552672 0.10370838 0.062099516 -0.09628474 0.21675958 -0.008295535
-0.057455227 -0.09949282 0.29861176 -0.05642046 0.025427029 0.18085112 -0.13027431 0.02720125
0.21901438 0.09104032 -0.016894817 0.2326941 -0.19820243 0.3960273 -0.44146255 -0.23971926
0.2549706 0.042010408 -0.09922404 -0.19955586 0.05855304 0.1915459 -0.25559798 0.15209974
0.082483076 -0.004945736 -0.08862101 0.32656255 0.12197106 -0.070830196 -0.05719766 -0.0076039927
-0.2069814 -0.14984137 -0.011032266 -0.091532625 -0.16089854 0.07004692 0.019244991 -0.19532837
0.056775082 0.24207328 -0.358792 0.11837028 -0.12078922 0.19178942 -0.07654263 0.10555024
-0.07651036 0.24309433 0.2076063 -0.003001363 0.18320222 0.10640027 0.003608825 0.3578465
0.08361436 0.20597707 0.13936439 0.120160125 -0.025750788 0.06432157 -0.04333043 0.012568377
0.122320116 0.1212393 0.055628095 0.11204813 0.039963067 -0.3379513 0.24350396 -0.01954259
-0.17984602 -0.1313968 -0.04686697 -0.0010514179 0.1369953 0.046396483 -0.08001323 -0.0075787553
-0.19122055 0.09561748 0.2679754 0.032119006 0.04243438 0.12799369 0.091950476 0.0007104705
-0.11880116 0.087621346 -0.3713184 -0.033852126 -0.3532191 0.15295398 -0.3305807 -0.07556656
-0.0067282775 -0.22942667 -0.02035274 0.16864848 -0.14746696 0.03453714 0.052275356 0.1430654
0.105475694 0.0014452818 0.09708029 -0.21190563 0.07661179 -0.06493481 0.12398862 0.14013474
0.20593986 -0.334116 0.020073572 -0.18330446 -0.0605287 -0.15838121 0.2691853 0.15315461
0.12004921 0.026632667 -0.2791808 0.09147882 0.16265115 -0.13600405 0.22174391 0.021062754
0.049326245 0.046450958 0.16550031 -0.3802194 -0.10691038 0.17232496 0.009499044 0.23021145
0.1709708 0.21834923 0.12537453 0.18253018 -0.020442959 -0.12701158 -0.013330009 -0.033565357
-0.05284258 0.17555097 0.1349273 0.034507625 0.13717276 0.24016932 0.014369662 -0.053230777
-0.003223682 0.027397595 0.19075702 0.140977 -0.14185958 -0.26396087 0.17244136 0.14301473
-0.07496018 -0.09596783 -0.0696054 0.19434859 0.1472057 0.19286801 -0.14220613 -0.063647404
0.23853338 0.21650815 0.24731204 0.1603296 -0.017613994 0.19635466 -0.20735486 0.0423212
0.047780056 0.032950234 0.115100816 0.010367007 0.0971321 -0.030674431 -0.06159261 0.13187167
0.06375353 -0.07518619 -0.05555587 -0.07844832 -0.059773307 0.0921292 0.18843357 0.20371759
-0.019470545 -0.124562435 0.14537674 -0.13036098 0.07718398 0.21283132 -0.23139602 -0.2360451

net.subgraph.layer_seq.glp_1.mlp.3.bias f4 [10]
00000000: d4ab 1e3e 17ad 503e 6f1b 2b3d 871d 5b3d
00000010: a8a5 d9bd bcab 8a3b 576c 9e3d 5bd8 5abd
00000020: 9af4 9ebc 4f2e 38be
0.15495235 0.20378529 0.04177421 0.053494956 -0.106272995 0.004231898 0.07735508 -0.05342899
-0.019403744 -0.17986415

net.self_atten_layer.q_lin.weight f4 [32, 20]
00000000: 6c47 8a3e df71 bd3b 5fbd ca3e 9d09 a4ba
00000010: 88e5 64be 0d39 853e 161c 193d 2aa9 583e
00000020: b911 453e a879 a8bd ced2 103e b579 2cbd
00000030: 3266 cabd 1169 113e 49ff 263e 7040 49be
00000040: e4a2 a5bc d008 3c3e 515b b13d 2de7 403e
00000050: c46b 43bd 520e 1cbe a3ab a53e aeb8 3ebc
00000060: 6ae4 693e 9544 53bd e89e 3bbe ec49 00b9
00000070: 23d1 82be 19a9 413e 5ae3 283e d4dd 5b3d
00000080: 3cfe b4bc 8a0d e33d 5557 11be dafd 5f3e
00000090: 9fad 63be 0c58 5bbe 596d 58bd 1e09 3b3e
000000a0: 4284 243e a8ab 97bc 274a 42be 8b56 c8bd
000000b0: 7f7c b83d 4096 483e d481 b43c e1ec d63d
000000c0: 7135 93bd 2ea1 ab3d 899b 0fbe eaa3 a5bd
000000d0: adcb 143e 93a2 b7bd 9933 0e3e 2b97 b5bd
000000e0: 7e4f 55bd 13f0 9b3b f61e 52be 9c52 12bb
000000f0: 25e0 7bbe f5e7 21be fb7b cdbc e5df 0b3e
00000100: 648f 693e b05c 79be 016a d23d 0f99 91be
00000110: d168 5cbe 2dad 213e d55d 573b 93a2 d5bd
00000120: 7ed8 5cbe a749 b1bd 38f4 983d 26f0 53be
00000130: 9170 5ebe 4967 e83c 0ff4 24be 5b99 48be
00000140: 713e 66be 877f 2cbe 56ca 3bbe 6f23 6abe
00000150: 6272 f33d cb9b 92be 3ae9 babd 6059 58be
00000160: 0374 86be 074b 203e 0a3d 30be 1a86 2dbe
00000170: 4b94 023e c03d 2b3d 6b87 503e 6ed0 74bd
00000180: f631 ddbd 8086 a9bc 6248 943a 0fa0 2e3e
00000190: 2dd9 b5be 7ef3 87bd 9d5b 0bbe 4d6d bbbd
000001a0: 5f33 f0bd 8815 ccbd 6524 dbbd eae3 21bd
000001b0: 00a3 a7be d7c1 1bbe 0fc8 43be 1fc6 0c3e
000001c0: efc0 58be a777 40be 70f5 573b a96d 343e
000001d0: 7f17 44be 8645 ccbd 721a 493e cd97 19bd
000001e0: bda0 4bbe 32c4 e6be 8c14 bfbe 0b27 01be
000001f0: db81 f13e 677f febd 993b 77be 3b76 aabe
00000200: 6344 7bbe 8322 4bbe e7c2 02be e3f6 97bd
00000210: 9d7b 343e dc23 24be 8f1b 23be 0b49 8dbd
00000220: 54ee 7e3b 2d51 793d a5df db3b a27a 5cbd
00000230: 82e2 2bbe 948c 08bd 0ba6 82be e0b4 5c3e
00000240: cbd0 59be f1fe 67be 69c9 f7bd 67eb a0bd
00000250: d3fe cc3d 09b2 963c 7f55 47be 2bbb 1ebc
00000260: 4d66 063e 9bdc c93d 8f8d 3b3e f23d cbbb
00000270: 75d8 19be 0d79 173e 5f09 9dbd 541e ed3d
00000280: 40bb 08be 5919 0f3e 8262 793e 58d4 b03e
00000290: 5d37 98be a726 61be ee82 8c3c b152 ccbd
000002a0: d47f 813e e5ab 87bd 27e3 17be 0dc8 cbbd
000002b0: 1cf4 fcbd 60d6 ba3d e7b8 47be d77e 55be
000002c0: 8ab6 61be 3828 c53d 126f e23d e835 0ebe
000002d0: 4fe5 463e 9208 183e f99e eb3d 35d7 58be
000002e0: e0e6 e83d bae0 ea3d a511 f0bb 3a4a 09be
000002f0: ede4 ab3d dd78 6b3e aaba 0abe a8f8 3a3e
00000300: e7e4 603e 2689 b4bd b044 80bd 6438 e43d
00000310: e661 33be 4319 b53d aaae 553d 2754 103e
00000320: 1a56 9fbe 7edf acbe 311e ff3d 4ac6 47bd
00000330: 72d5 c4bd 3028 38be c682 84be 5409 a7be
00000340: 52d5 15be e3bd 8f3e 364f 36bd d982 033e
00000350: 9e73 593e 7ab3 d03d b5fa 4cbe fe72 e63d
00000360: 3cad ae3d 2878 313e fedd 61be 81d2 0c3e
00000370: 1630 a53e a8a9 71be b4fa f73d dd5f 7c3d
00000380: 226b 10be 1e7f 623e a6e4 4b3c e963 973d
00000390: 7ba7 5c3e a9d1 c03e e372 443e 8b53 e4bc
000003a0: f70a 403e 1862 55be 1a1f f7bd 70e4 43bd
000003b0: 4309 88bd 6180 533e 60ff d73d 816a 133e
000003c0: ee5f 5f3c e1cb 80be f4e1 cfbd 5b91 9a3d
000003d0: 04b7 bc3d 0002 51bd d56b 79bd 930f 3bbe
000003e0: 81ea f53d fe47 35be eb0d 1fbe c840 1b3e
000003f0: f20c 1b3e d198 8fbd 001b 37bd 72f4 28be
0.27007616 0.0057813968 0.39597604 -0.0012515072 -0.22353184 0.2602009 0.0373803 0.21158281
0.19245042 -0.08226329 0.14142916 -0.042108256 -0.098827735 0.14200236 0.16308321 -0.19653487
-0.020219274 0.18362737 0.08659995 0.18838187 -0.047710195 -0.15239838 0.3235751 -0.011640711
0.2284104 -0.051579077 -0.18322337 -0.0001223457 -0.25550184 0.18912162 0.16492978 0.05367835
-0.022093885 0.11086567 -0.14193471 0.2187418 -0.222342 -0.21420306 -0.052838657 0.18265197
0.16066077 -0.01851447 -0.189736 -0.09782132 0.09008121 0.19588566 0.022034563 0.104944
-0.071879275 0.08380352 -0.14024176 -0.08087905 0.14530821 -0.089665554 0.1388687 -0.088667236
-0.052077763 0.0047588437 -0.20519623 -0.002232707 -0.24597223 -0.15811141 -0.025083533 0.13659628
0.22808605 -0.24351764 0.10274125 -0.28437087 -0.2152436 0.15788718 0.0032862325 -0.10431399
-0.2156696 -0.08656626 0.07468456 -0.20697078 -0.21722628 0.028369563 -0.16108726 -0.1958975
-0.22484757 -0.16845523 -0.18338904 -0.2286508 0.11887051 -0.28634486 -0.09126516 -0.21127844
-0.26260385 0.1565362 -0.17210785 -0.16945687 0.12751882 0.041806936 0.20364158 -0.059769087
-0.10800545 -0.020694017 0.0011313076 0.17053245 -0.35517254 -0.06638239 -0.13609166 -0.09151707
-0.11728548 -0.09965044 -0.10700301 -0.039523996 -0.32741547 -0.15210663 -0.19119285 0.13747452
-0.21167348 -0.18795644 0.0032952689 0.17619957 -0.19149588 -0.09974198 0.19638994 -0.037498284
-0.19885536 -0.4507156 -0.37320364 -0.1261255 0.47169384 -0.12426644 -0.24143828 -0.33293328
-0.24537806 -0.19837384 -0.12769662 -0.07420137 0.1762528 -0.16029304 -0.15928482 -0.068986975
0.003889938 0.06086843 0.00671001 -0.05382789 -0.16785625 -0.03333719 -0.25517306 0.21553373
-0.21271054 -0.22655846 -0.12098963 -0.078573994 0.10009541 0.01839544 -0.19466208 -0.009688179
0.13124962 0.0985653 0.18315719 -0.006202453 -0.15023978 0.14792271 -0.07667803 0.1157805
-0.1335268 0.13974513 0.24353984 0.34537005 -0.2972974 -0.21987401 0.017152276 -0.0997671
0.25292838 -0.06624583 -0.14832745 -0.09950266 -0.12351248 0.0912292 -0.19504128 -0.20849167
-0.2204229 0.09626812 0.11056341 -0.13887751 0.19423412 0.1484702 0.11504931 -0.21175845
0.11372161 0.114686444 -0.007326322 -0.13407221 0.083932735 0.22995324 -0.13547769 0.18258917
0.2196232 -0.088152215 -0.06263101 0.11143568 -0.17517814 0.08842709 0.052168526 0.14094602
-0.31120378 -0.3376426 0.124569304 -0.048773088 -0.09611024 -0.1798408 -0.25881022 -0.32624304
-0.14632156 0.2807456 -0.044509135 0.12842883 0.2123551 0.101904824 -0.20017512 0.11252402
0.085291356 0.17330992 -0.2205734 0.13752176 0.3226325 -0.23599875 0.12108365 0.06161486
-0.14103368 0.22118804 0.012444651 0.07392103 0.21548264 0.37659958 0.19184451 -0.027871868
0.18754183 -0.20838201 -0.12066479 -0.047825277 -0.066423915 0.20654441 0.10546756 0.14396097
0.013633711 -0.25155547 -0.10150519 0.075472556 0.09214595 -0.051027298 -0.060893852 -0.1826766
0.12007619 -0.17703244 -0.15532653 0.15161431 0.15141657 -0.07011569 -0.044703484 -0.16499498

net.self_atten_layer.q_lin.bias f4 [32]
00000000: 8010 883c 218b 84be 2f5d 363d 9848 39be
00000010: 16d2 8dbe 054a cd38 6abc 84be 3f44 c4bd
00000020: 2467 453e c24b 82be 68c5 81bc 3fc1 da3d
00000030: f191 e2bc ea82 0f3e 4f07 22be 1cd5 973e
00000040: 1924 a63e f3dd 143e dff8 f23d 2659 96be
00000050: a9cc 8fbd 8f95 003d 66e3 01be 3a53 573e
00000060: 0ce0 e2bd 3c25 303c 0de2 84be f5ad 533e
00000070: 9e93 70be 4c8b 0abe 08f2 553e 1fdd 8d3d
0.01660943 -0.25887397 0.04452246 -0.18094099 -0.27699345 9.788949e-05 -0.25925 -0.095833294
0.19277626 -0.25448424 -0.015841201 0.1068139 -0.02765748 0.14014784 -0.158231 0.29654777
0.32449415 0.14537792 0.11863875 -0.2936489 -0.07021458 0.03139263 -0.12684402 0.21027842
-0.1107789 0.010751065 -0.25953713 0.20671828 -0.23493811 -0.135297 0.20893109 0.06926941

net.self_atten_layer.k_lin.weight f4 [32, 20]
00000000: ea4e 493e ae8c 4fbe fca5 dbbc a625 553e
00000010: 9562 6b3e d66f d63d f16b 0d39 b61f 1f3e
00000020: bf42 94be 77d1 0e3e 48cf 733d 2b18 20be
00000030: 08db 333e 0446 72bd 9f63 6b3e 5ec6 ec3d
00000040: dca6 58be efc1 003e 8faf 9dbe 9ce9 56bc
00000050: 1615 b73d fe39 803c f0ce 9a3d 635c 773e
00000060: 1011 ddbc 7513 83bd c2ea ba3c e62b 293e
00000070: a4ee 2c3e 613d 87be 7237 943d 5783 43be
00000080: d6d9 cbbd 81d4 a0bd 1242 04be 2d31 13be
00000090: 5df6 00be 320b 85be 504b fdbd e78f 65be
000000a0: f33a 503e ec9e db3d 9073 0cbe 5dd0 b2bd
000000b0: 94e1 cdbd 6edb 49be 942f 63bc 0807 b1bd
000000c0: 0a88 12bc 5c25 11be 0545 6d3d c620 e7bd
000000d0: 5b41 323d cda6 193e 9d9e 3bbd f5e8 8dbc
000000e0: 4f62 583e 92df d33d 79ad 03be 1668 12bc
000000f0: bcd2 78be 7392 36bd f748 e7bd 9e99 45bd
00000100: c2bd fd3d fd88 cabd bdb6 13bd 0de1 b83c
00000110: 5d75 a53e 80ee 213e cfba 1abe 6d8c c2bc
00000120: 28f8 c7be aa3f 8a3d d743 97be 3f43 9bbd
00000130: a71f 58be 42bb bebe b77a 563e 572f d3bd
00000140: da75 4f3c 2f29 333e b261 afbd 6b08 0e3e
00000150: e69e d2bd e677 ba3d a4b3 553e 518e 393d
00000160: de81 063e 40c8 9ebd 0b79 e5bd 765e 6abe
00000170: f14e 07be b1f8 19be 0bcd 81bd e884 42be
00000180: fca0 5b3c 2c6a 70be 4b7d 6d3e 39b7 b5be
00000190: 97a4 2cbd dc8d 1e3e 1e6c c63d 7f41 803e
000001a0: c244 fb3d 6737 133e 3298 3d3e 1697 b03d
000001b0: f069 92bd f43b acbd cbc3 bbbd 3f58 cfbc
000001c0: 3133 29be 8591 f0bd b179 12be 676f 5b3b
000001d0: 322a 933e 6168 80be 672f f33d d503 b6be
000001e0: ddd0 b7be 4936 1dbe 8350 3ebe 66c6 f33d
000001f0: f474 77be 3260 173e 3a98 a53e 5ac5 33bc
00000200: 8188 a43e 7072 40be 92d0 4cbe 8ca8 e1bd
00000210: 926b 0abe c272 00be cf1a a2be 6f4d bd3c
00000220: e24e 333e c801 b83d 928a 67bd da70 f8bd
00000230: 1e01 84be 8bea 733e 0047 0ebd 9db9 913e
00000240: adbb 1d3e 7d62 653e 60a8 193e 7a1c 11bd
00000250: f0fd 4c3e 9c2d 06be 311e 94bd 0002 973e
00000260: 5b99 57bc 22f1 433d e044 ebbd 4001 8d3c
00000270: 278e e23d f544 e33c 34b3 b53d 606c 3d3e
00000280: ff21 e3bb 6277 b83c 6f33 483e 635c 883b
00000290: 6b2d e8bd 286b 023e b05e 9cbe e321 1ebd
000002a0: 8d56 f6bd 0047 9b3e 31d6 05be 2c4f 1bbc
000002b0: 13c1 31be 13ae 223d 6d5d d5bd db56 363e
000002c0: 9933 66be 94a0 8abd 99f1 b9bd 364e 4f3e
000002d0: 27b2 783e 1a44 88bb 7154 4e3d 4d81 8cbd
000002e0: 534f 8b3d b6d0 93be 9f2e af39 578b cc3d
000002f0: 3f24 fe3c 02cb 07bd 173a f33d 937b 89be
00000300: 91d0 113e 0620 093e 3485 8c3d 30ac 54be
00000310: 2b74 bdbb ae01 11be 3d5e ac3d b6e9 21be
00000320: b9fd c9be 7800 c93d a4de 89be 6257 833e
00000330: 4b68 4d3e 6c91 3ebe 7a5e 293e ea67 3b3d
00000340: ebf5 0c3e 1f0e 6abe fdd4 e0be 31c2 42be
00000350: 26e1 7fbd a955 883d 5426 e73a fc00 7dbe
00000360: 38d1 803c 9bf5 00be 3655 edbc 1310 d7be
00000370: 878a aabd 8485 babd 3cb1 993e 4659 503e
00000380: c63f c03d 929b 8e3b 8202 3f3d bc6b 18be
00000390: 3ed2 c2be 2c90 23be 824c 073e c764 3dbe
000003a0: 2afe 253e afc4 ef3c cbc9 933e 0b32 8e3b
000003b0: ac52 273e b6c3 b23e 2445 6fbe 6498 c53d
000003c0: 6b1e eebd 459d 823e 1791 3fbe 486c 83bd
000003d0: 7220 15be d5d0 373e a63b 293d 933a 00be
000003e0: f916 953e c025 243e b140 29be 2fc2 0abe
000003f0: dcdd 0e3c 23fd 6d3c 62bf e2bd 74c7 4fbe
0.1965901 -0.20268509 -0.026812546 0.20815143 0.22986825 0.1047055 0.00013487019 0.1553944
-0.28957173 0.13947092 0.05952385 -0.1563422 0.17564023 -0.059148803 0.22987221 0.11561273
-0.21157402 0.1257398 -0.30798003 -0.01311722 0.08939569 0.015652653 0.075590014 0.24156336
-0.026985675 -0.064001955 0.02281702 0.16520652 0.16887909 -0.26414016 0.07237138 -0.19093071
-0.09953658 -0.07853032 -0.12915829 -0.14374228 -0.1259398 -0.25985104 -0.1236788 -0.22418176
0.20334987 0.10723671 -0.13715959 -0.087311484 -0.10052791 -0.19712612 -0.013866324 -0.08643919
-0.008943567 -0.14174408 0.05792715 -0.11285548 0.04351936 0.15005036 -0.045805562 -0.017322997
0.21131252 0.10345377 -0.12859143 -0.008935949 -0.24299139 -0.04457326 -0.11293214 -0.048242204
0.12389709 -0.0988941 -0.036062945 0.02256825 0.32316104 0.15813637 -0.15110324 -0.0237486
-0.39056516 0.06750424 -0.29543945 -0.075811855 -0.21105824 -0.3725224 0.2094525 -0.10311764
0.012662375 0.17496179 -0.08563556 0.13870399 -0.10284214 0.091049 0.20869309 0.04530174
0.13135478 -0.077530384 -0.11204728 -0.22887596 -0.13213708 -0.15036274 -0.06337937 -0.18996012
0.013405081 -0.23478001 0.23192327 -0.3549135 -0.042149153 0.15483803 0.096885905 0.2504997
0.12268974 0.14376603 0.18515089 0.08622567 -0.07149112 -0.08409873 -0.09168204 -0.025310634
-0.16523434 -0.11746506 -0.14304234 0.003348315 0.2874313 -0.25079635 0.11874276 -0.355498
-0.35901538 -0.1535274 -0.185854 0.11903076 -0.24165708 0.1478279 0.32342702 -0.010972345
0.32135394 -0.18793654 -0.20001438 -0.11018476 -0.13517597 -0.12543777 -0.31661078 0.023108212
0.1751056 0.08984715 -0.056528635 -0.121309 -0.25782102 0.2381994 -0.03473568 0.28461924
0.15403624 0.22400852 0.15005636 -0.035427548 0.20018744 -0.13103336 -0.07232321 0.29493713
-0.013159121 0.047837384 -0.11487746 0.01721251 0.1106227 0.027742842 0.08872071 0.18498373
-0.006931543 0.022517864 0.1955087 0.004161404 -0.11336788 0.1273619 -0.3054099 -0.038606536
-0.12028227 0.30327606 -0.13069989 -0.009479325 -0.17358808 0.03971679 -0.1041821 0.1780657
-0.2248062 -0.06768909 -0.09079284 0.20244679 0.2428671 -0.004158509 0.0503735 -0.068606
0.06802239 -0.2887017 0.00033413336 0.099875145 0.031023143 -0.033152588 0.11876314 -0.26852092
0.14239718 0.13391122 0.06861344 -0.2076881 -0.0057816706 -0.14160797 0.08416412 -0.1581181
-0.39451388 0.098145425 -0.26927674 0.25652605 0.20059316 -0.18610162 0.16539946 0.045753397
0.13765685 -0.2285695 -0.43912497 -0.1901939 -0.062470578 0.066569634 0.0017635324 -0.24707407
0.015724763 -0.12593691 -0.028971296 -0.4200445 -0.08327203 -0.09107497 0.30018032 0.20346555
0.09387164 0.0043520415 0.04663325 -0.14884847 -0.38051027 -0.15972966 0.13212779 -0.18495475
0.16210237 0.02926859 0.28864893 0.0043394617 0.1634013 0.3491494 -0.23366219 0.09648207
-0.116268955 0.25510612 -0.18707691 -0.064171374 -0.14563158 0.17950757 0.04131665 -0.12522344
0.2911909 0.16030025 -0.16528584 -0.13550638 0.008719888 0.0145256845 -0.110716596 -0.20290929

net.self_atten_layer.k_lin.bias f4 [32]
00000000: c1a2 4e3d a7a0 cd3d a4ff 52be 1317 383c
00000010: a667 6cbd 8f8a 143e 7148 9b3d 8587 b73d
00000020: c20c 093e ce25 4cbd d9da 5dbc 5e08 383e
00000030: 714b 38be bbe1 1ebe 6a21 873c ffaa b6bd
00000040: c4aa 4a3c 4de0 493e 3c99 cebc ebc3 42be
00000050: 1eef cebd 35d9 523e faee 4bbd 9a1f cabd
00000060: 2677 ce3d 8d6f da3c 3363 49be 2978 3e3e
00000070: 1f36 013e 629b 473e 90df c73d 9e25 99bd
0.050448183 0.10040408 -0.20605332 0.01123597 -0.057716034 0.14505981 0.075821765 0.08961395
0.13383773 -0.04984074 -0.013540947 0.17971942 -0.17997529 -0.15515797 0.016495425 -0.08919334
0.012369815 0.1971447 -0.025219552 -0.1902005 -0.10104202 0.2059067 -0.049788453 -0.09869309
0.100813195 0.02666452 -0.19666748 0.18600525 0.12618302 0.19492868 0.09759438 -0.07477878

net.self_atten_layer.v_lin.weight f4 [32, 20]
00000000: 860d 7abc f25a fb3d 2671 da3b 6451 9a3d
00000010: c9a3 a8be 9e29 1ebe 1ccd 203e 48f3 793d
00000020: e274 afbd 5221 9fbe 4426 ff3d 121f 63bd
00000030: be08 4cbe 3a2f 743e 2bc0 583c 226d 21be
00000040: 8365 16be 7c7e 753e 26ac 613c 92b7 a2be
00000050: 73b6 813e 1d0c 8abd 94fb 023c e0ff 3ebe
00000060: 5cf0 8dbe 7f00 97bd a1eb 44bd 01c6 cbbd
00000070: 36ef 543e 59b6 cf3d d7e6 58bd 3878 e53d
00000080: 3823 3bbe 4361 ffbd cda3 843d 7e68 0dbe
00000090: 8ba9 e73d 80b5 843d 7a3c 24be 993c 75be
000000a0: 60a9 153e 3750 f23d fb00 273d ec24 72be
000000b0: 7c50 84be e876 6c3d 87c4 0b3d 699f 723e
000000c0: ae97 653d 8970 963d c806 a13d 1c7e 343e
000000d0: 60f3 293e 05b4 273e 13d1 943d 8a51 b1bd
000000e0: 7102 b0bd 9a84 9d3d b99e 3b3d 7a0d c2bd
000000f0: dbca 05be b77b 3cbe b588 a93e 84fa 4fbd
00000100: ef8f 12be f793 fcbd 826a 15be 3e15 263d
00000110: 623c 1e3e 02a3 e0bc 2a79 32bd 0342 163e
00000120: ee60 c7bd 0f38 3abe bd17 f0bd 7d3c 483e
00000130: 0fb3 123d b910 293d 6411 6ebb 1fde f23d
00000140: 0f9f ffbd 8762 823e d24d 0d3e b853 013e
00000150: 5af5 e1bd df97 ffbd 4180 953e 09eb 423e
00000160: a0a4 88bd 628a 7cbe 28a2 04be b318 273e
00000170: 3b73 07be 3867 6c3e 7bb3 eabd a8ff 49be
00000180: 5f34 e33d 2d37 14be 1fdb 02bc cfb5 12bd
00000190: d32e 9a3d a651 6dbe 485c 8abe 4280 be3d
000001a0: 16d4 a73c 2ed4 56be 4633 343c 72a7 7cbe
000001b0: f474 023b 7ca7 5c3b 2e97 973e 241f 51be
000001c0: 474f e63c 1eb7 f63d e01e 483e 9521 3bbe
000001d0: cb13 d03d c1a0 033d 9e00 0b3e 3710 30be
000001e0: 320f bf3e 28b2 f5bd 2d9c e1bc 7b96 973c
000001f0: c309 b13d ef0b 0abe 1c74 1c3e cfeb 8dba
00000200: c889 083e fc10 703e 5c94 1a3e 4d20 7ebe
00000210: 834c 36bd 0ba4 05bc efd5 94be 99e7 783c
00000220: d4fd dbbd 6990 46bd 3c12 c63d 3735 bebd
00000230: b2a4 62be 73f5 203e b9cd 94be 7cd3 5f3e
00000240: 3fb1 dabd 1358 88bd 432b ae3d ea36 a83d
00000250: c33b cebd cde8 89bd e94e a83d 6f89 4b3e
00000260: 15ce 30be f0b9 e1bd e343 abbc 9622 5fbc
00000270: 5578 23be aa76 59be 6301 21be c021 fdbd
00000280: bd0c 13be ac68 2abe 4761 8ebe 6998 6d3d
00000290: 7a4e 4d3e 6776 6ebe 5d81 e93c 37c8 b0bd
000002a0: 44ee a83d 3a47 80be a8ca ec3c c435 4e3e
000002b0: 9b7a 2d3e 5545 83be cc66 4fbe 2d55 503c
000002c0: 98d7 a8bd 6141 4cbe 3f69 12be 068b 833e
000002d0: c007 1fbd 6235 79bd 5677 983c eb97 60be
000002e0: efc3 4c3d 409d 243e 88eb 65be 9acd 863d
000002f0: 875c 4cbd dc87 4d3e 2f4b 1d3e e27a 533d
00000300: e2f9 a5ba f37e 63be 841e a23d 0832 1e3e
00000310: 9595 09be dae0 71be 84c9 2a3e 00be 183d
00000320: 1059 083e f797 1fbd 6daf 953e e0af 8b3e
00000330: fa35 e43d 17bf cbbd ffcb 193e 25bd 0e3e
00000340: 4ea5 0d3d e559 6cbe bb7c 0bbe 02ae 87be
00000350: 12c2 053e e742 473e 2e08 533e 88e8 b1bc
00000360: 340d b73c 7010 363e b720 3bbe 3662 57be
00000370: 5468 75be a617 08bd 28df e43b 6f7e 963d
00000380: 2645 bbbd 7087 7fbc dbb0 45be 5a5e 2fbe
00000390: 57a8 233c 31e5 5bbe 640e c2bb ff79 49be
000003a0: 12cd 09be 1cf5 3dbb c116 4abd 0d4a 3d3e
000003b0: 56ba 4a3e 6f69 c2bd 1b97 3e3d 55a8 bcbd
000003c0: a300 c3bc 0a31 a5bd adc3 c2be f62a 2c3e
000003d0: e9db eebc ec6a 30be f84b 303d f180 cabd
000003e0: 98c5 0abe b4a6 a6be 0d45 293c 8f1b 35bd
000003f0: 0545 463e a83a 47bd efe7 473e 9ec2 e43c
-0.015262013 0.12273206 0.0066663204 0.07535055 -0.32937458 -0.15445563 0.15703243 0.061023027
-0.085672155 -0.3108011 0.124584705 -0.055449553 -0.1992521 0.2384614 0.01322941 -0.15764287
-0.14687161 0.23974031 0.013773954 -0.31780678 0.2533451 -0.06740592 0.007994551 -0.18652296
-0.27722442 -0.073731415 -0.048076276 -0.099498756 0.20794377 0.10142202 -0.05295452 0.112045705
-0.18275154 -0.12469723 0.06476555 -0.13809392 0.11311635 0.06479931 -0.16038695 -0.23948897
0.14615393 0.11831706 0.04077242 -0.23646897 -0.25842655 0.057730585 0.03412297 0.23693623
0.056052856 0.07345683 0.078626215 0.17626232 0.16596746 0.16377266 0.0726644 -0.086581305
-0.08594216 0.07691307 0.045805667 -0.09475227 -0.13065664 -0.18406568 0.33112112 -0.05077602
-0.14312719 -0.123329096 -0.14591411 0.040547602 0.15452722 -0.027421478 -0.043572582 0.14673619
-0.09735285 -0.18185447 -0.11723278 0.19554324 0.035815295 0.041275714 -0.0036326284 0.118587725
-0.1248151 0.25465795 0.13799217 0.12629592 -0.11033125 -0.12480139 0.29199412 0.19034971
-0.06672025 -0.24662164 -0.12952483 0.16318016 -0.1322755 0.2308625 -0.114600144 -0.19726431
0.11093973 -0.14474173 -0.007986813 -0.035817917 0.07528462 -0.23175678 -0.2702353 0.09301807
0.020486873 -0.20979378 0.010998553 -0.2467325 0.0019906135 0.0033669164 0.29607528 -0.20422035
0.028113974 0.120466456 0.19543028 -0.1827453 0.10160025 0.03213573 0.13574454 -0.17193685
0.3731628 -0.11996871 -0.02754029 0.018504372 0.0864444 -0.13481115 0.15278667 -0.0010827723
0.1333381 0.23443979 0.15095657 -0.2481701 -0.04450656 -0.008156787 -0.29069468 0.015191936
-0.10741773 -0.048477564 0.09671447 -0.09287494 -0.22133139 0.15718631 -0.29063204 0.21858019
-0.10678338 -0.06657424 0.08504345 0.08213599 -0.100699924 -0.06733856 0.08218176 0.19876646
-0.17266114 -0.11021793 -0.020906394 -0.013619086 -0.15963872 -0.21236673 -0.15723185 -0.12359953
-0.14360328 -0.16641492 -0.27808592 0.058006678 0.20049468 -0.23287354 0.028504068 -0.08631938
0.082485706 -0.25054342 0.028905228 0.20137697 0.16941302 -0.25638834 -0.20254058 0.01271562
-0.08244246 -0.19946815 -0.1429796 0.25692004 -0.03882575 -0.060841925 0.018611591 -0.21932952
0.049991544 0.16075611 -0.2245313 0.06582184 -0.04989293 0.20071357 0.15360712 0.051630862
-0.0012662972 -0.22216396 0.07915977 0.15448773 -0.13435967 -0.2362093 0.16678435 0.037290573
0.13315225 -0.038963284 0.29235402 0.2728262 0.11143108 -0.09948557 0.15019225 0.1393934
0.034581475 -0.23081167 -0.136218 -0.26499945 0.13062313 0.19459115 0.20608589 -0.021717325
0.022345163 0.17779708 -0.18274198 -0.21033558 -0.2396558 -0.033225678 0.00698461 0.07348334
-0.091440484 -0.015596256 -0.19305746 -0.17125836 0.009988866 -0.21474148 -0.0059221257 -0.19675444
-0.13457134 -0.0028985208 -0.049338106 0.1848528 0.19797644 -0.09492766 0.046530824 -0.09211794
-0.023804015 -0.08065994 -0.38039914 0.16813263 -0.029157596 -0.17228287 0.0430412 -0.09887875
-0.13551939 -0.3254906 0.010331404 -0.044215735 0.19362266 -0.048639923 0.1952207 0.027924832

net.self_atten_layer.v_lin.bias f4 [32]
00000000: 1c59 82bd 2afa 993b fad4 ecbd feab 683e
00000010: c552 dd3c dc2a cf3c 54f2 70bd 8e8c 2e3e
00000020: 7a6d 463c cc24 843d c7ac d9bc 5ce2 2bbe
00000030: 5a9a 3c3d 625c 84bd 5c5f 6abe 1b4e 3b3c
00000040: 6fad 5ebe b54a eebd 3d25 12be 3cd3 913c
00000050: ee93 0cbe f3b3 eabd 2704 88bd d6fa 3c3e
00000060: 3296 783d 2b74 f5bd 763c 51be 50d7 dc3b
00000070: fc19 0b3e 4dcf 153d e559 6d3e 0e18 793e
-0.063646525 0.0046990113 -0.115640596 0.2272186 0.027017007 0.025288992 -0.058824852 0.17045805
0.012111062 0.06452331 -0.026571644 -0.16785568 0.04604564 -0.06462933 -0.22887939 0.011432196
-0.21745847 -0.11635343 -0.14272018 0.01780092 -0.13728306 -0.11460104 -0.06641417 0.18455061
0.060690112 -0.11985048 -0.2043322 0.0067395344 0.13584131 0.03657465 0.23178823 0.24325582
