gail_airl_ppo/init_model/critic_init.pt (torch, 50143 bytes, 27 tensors)

net.subgraph.layer_seq.glp_0.mlp.0.weight f4 [32, 5]
000000 05 ba dd bc c9 b7 c1 3e bc e0 5b be 92 fd cb be
       -0.02706624 0.3783553 -0.21472448 -0.39841896
000010 cd 60 15 be 59 a8 e5 be 3c 12 a8 3e 91 69 87 bd
       -0.14587708 -0.44855002 0.32826412 -0.06611932
000020 06 23 2e 3e fe 43 45 be 9d 1f f4 3d c2 2d a1 be
       0.17005548 -0.19264218 0.11920092 -0.31480223
000030 1e 15 7d bb 2b ca 8f 3e e5 41 a6 3e 2f b9 8f 3e
       -0.0038617323 0.2808393 0.3247215 0.2807097
000040 86 52 76 3d 3e f8 b2 bd a1 f4 95 3e e1 d1 56 3e
       0.060137294 -0.08738755 0.292882 0.209785
000050 09 c4 90 be 7f 04 a8 3e 1c 5d e7 be e2 b3 b6 bd
       -0.28274563 0.3281593 -0.45188224 -0.08921029
000060 9e 72 a3 be e0 17 66 bd fd 57 9e be c5 f8 d6 3d
       -0.31923383 -0.056175113 -0.30926505 0.10496668
000070 8d 5e 29 bd e6 75 9e 3e 2a fb da be 88 94 75 bc
       -0.041349936 0.30949324 -0.42769748 -0.014989026
000080 73 a7 6e be b0 af 40 be 4c cc c7 3e d1 ba c3 be
       -0.23306064 -0.1881702 0.39023054 -0.38228467
000090 43 15 44 3f 08 63 d9 bc 5b cf 51 be a9 99 f9 be
       0.7659494 -0.02653648 -0.20489256 -0.48750046
0000a0 6a fe 37 be 34 24 1f be a9 39 00 3f 76 a3 3b 3d
       -0.17968145 -0.15541154 0.5008798 0.045810185
0000b0 6b 4d b0 be 51 63 4b 3f b9 2b 9b 3d 53 27 d1 3e
       -0.34434065 0.7944842 0.07576699 0.40850314
0000c0 b3 94 17 3e 33 8a 04 3f fc 75 f4 3d 23 2f 8f 3e
       0.14802818 0.51773375 0.11936566 0.2796565
0000d0 13 dc 80 be d8 f6 02 be 97 aa 8b be 34 d8 8b bd
       -0.25167903 -0.12789476 -0.27278587 -0.06828347
0000e0 1e 16 1b bf 13 8e 6e 3e 7d f3 71 be ad 1e 7e 3d
       -0.60580623 0.23296385 -0.2362804 0.062040973
0000f0 27 01 cd 3e 4d 13 c4 3d 93 be 82 3d 45 00 24 3f
       0.40039942 0.09573994 0.063840054 0.6406291
000100 51 b9 c5 be f9 d0 b5 3e 28 ae a0 be 04 e7 91 3e
       -0.38617948 0.35510996 -0.3138287 0.28496563
000110 cf be f6 3d e8 12 40 be 17 f8 30 3c 98 76 d3 be
       0.120481126 -0.18757212 0.010801337 -0.41301417
000120 6a db 80 3e 17 93 ad 3e 17 da 97 3e a2 d6 b2 3d
       0.251674 0.33901283 0.29658577 0.08732344
000130 ac 85 db 3e f0 0a 27 bf 1f 59 98 3e 8a fe a0 bd
       0.4287542 -0.65251064 0.29755494 -0.078610495
000140 ca 0d f3 3e fa 90 92 3d 96 71 85 bc 08 a5 95 3d
       0.47471458 0.07156558 -0.016289514 0.07306868
000150 ad 58 fc bd 57 2f 18 bf 3a f6 b3 be 2c 57 63 3e
       -0.12321601 -0.59447235 -0.35148793 0.22201222
000160 9e e6 e3 bc 81 09 04 bf a2 fe 80 3d 27 40 e9 bd
       -0.027819928 -0.51577 0.06298567 -0.11389189
000170 8b b0 82 be 24 42 eb 3e d5 dc 42 bb ae 16 b8 bb
       -0.25525317 0.459489 -0.0029733677 -0.005617938
000180 93 bb 3a bd b4 71 00 bf a0 b0 d1 be 0a 12 29 3d
       -0.04558904 -0.501735 -0.40955067 0.04127697
000190 b5 5b ba bd 76 90 84 3e a4 06 57 be af d0 66 be
       -0.09099523 0.25891465 -0.20998627 -0.22540544
0001a0 f8 f7 aa 3d 21 f7 19 bd 04 51 4a be 1f 6c 62 be
       0.083480775 -0.037589196 -0.19757468 -0.22111557
0001b0 8a 38 a2 be 12 70 84 be dc 27 c2 3e 57 22 c7 be
       -0.3168376 -0.25866753 0.37921035 -0.38893387
0001c0 6b 01 1c 3e f0 20 c7 bd c4 58 06 3e 54 9b a9 3e
       0.15234916 -0.09723079 0.13119799 0.33126318
0001d0 38 e5 98 be d6 8a 82 3e a4 fe ea 3d b0 86 9e 3e
       -0.2986238 0.25496548 0.1147435 0.30962133
0001e0 19 04 09 be 8b c6 b5 3d fe fd ac be 7f a4 66 be
       -0.1338047 0.0887576 -0.3378753 -0.22523688
0001f0 f5 0a ef 3d 05 ce 65 3e 4b 65 1f bf a1 e9 ed 3e
       0.11672012 0.22441871 -0.62263936 0.46467307
000200 99 2a 4a 3e c6 f5 0c be e5 1a 19 be e5 f8 a9 be
       0.19742812 -0.1376563 -0.14951666 -0.33197704
000210 19 bf 8b be d3 24 7b 3d df 1f a2 3e 6b dc a5 3e
       -0.27294233 0.061314415 0.3166494 0.32394728
000220 6a c5 db 3e a9 b3 73 bd 98 93 e0 be 28 b7 22 3c
       0.42924052 -0.05949751 -0.43862605 0.009931363
000230 6d 3f 16 3f 85 bf 20 be 1f b3 f3 bc 2b 22 8b be
       0.5869053 -0.15698059 -0.029748498 -0.27174506
000240 46 6b 89 3e 17 0c 6b 3e 60 84 47 3d 5b 36 71 3e
       0.26839656 0.2295383 0.048710227 0.23555891
000250 db 75 13 3f 2c a7 92 3e b5 dc 67 3e 04 82 4e 3e
       0.5760171 0.28643167 0.22642787 0.20166785
000260 1f bc 65 3e 8f cb 8b 3e b0 7e 9b be d5 48 30 be
       0.22435044 0.2730374 -0.30370092 -0.17215283
000270 4a 85 01 be 46 f7 20 3d 7c 11 fb bd ab bd f1 be
       -0.12648502 0.03929832 -0.12259194 -0.47215018

net.subgraph.layer_seq.glp_0.mlp.0.bias f4 [32]
000000 fb ec b5 3e b0 47 54 3c 81 05 de be 1c 69 6d be
       0.35532364 0.012956545 -0.43363574 -0.23184627
000010 a3 ac e3 3d 9c 2b 13 be b5 8f f6 be 55 00 3b 3e
       0.11116912 -0.14372104 -0.48156515 0.18261845
000020 68 1c 2a 3d 2e 24 c6 3e 20 a1 b4 be 10 60 65 3c
       0.041530997 0.38699478 -0.3527918 0.013999954
000030 59 cc 1f be 5a 79 83 3b da c3 e4 bc 37 60 d1 3e
       -0.15605296 0.004012269 -0.02792542 0.4089372
000040 0a cb a3 bc ce 10 88 3e 92 b5 ae 3d 68 b0 37 be
       -0.019994278 0.2657532 0.085307255 -0.17938387
000050 a0 30 5c be e2 d6 64 3e 35 2c d9 3d 60 aa 13 be
       -0.21502924 0.22347596 0.10604135 -0.14420462
000060 36 6c 63 be e0 81 5e bd 5b 8c b8 be 35 23 7e 3a
       -0.22209248 -0.054323077 -0.36044583 0.00096945773
000070 41 d2 5c 3e 1e 2f a5 3d 1a 48 91 3e c6 ee 9b be
       0.2156458 0.080656275 0.28375322 -0.30455607

net.subgraph.layer_seq.glp_0.mlp.1.weight f4 [32]
000000 ba d3 77 3f b4 f0 96 3f dc cf 5f 3f 1a ca 7c 3f
       0.96807444 1.1792207 0.87426543 0.9874588
000010 01 44 9c 3f 34 d0 69 3f 9a c5 93 3f 9f 7b 93 3f
       1.2208253 0.9133332 1.1544678 1.1522101
000020 06 0f 57 3f db 06 82 3f a4 d9 81 3f c9 c4 93 3f
       0.840073 1.0158342 1.0144544 1.1544429
000030 4f 93 8b 3f 3d 37 6e 3f 6d 86 85 3f 07 9d 83 3f
       1.090433 0.93053037 1.0431648 1.0282296
000040 6f b1 7f 3f 19 71 83 3f 9e c8 81 3f 70 a5 8c 3f
       0.9988012 1.026889 1.0139349 1.0987988
000050 38 48 4f 3f e7 17 87 3f 71 b9 6c 3f b2 f7 8b 3f
       0.8096957 1.055417 0.9247046 1.0934966
000060 24 99 81 3f d1 0e a4 3f d4 ad 8c 3f ff 40 89 3f
       1.012486 1.2817022 1.0990548 1.072296
000070 53 fe 80 3f af e2 8d 3f f5 06 86 3f d6 a7 8e 3f
       1.0077614 1.1084803 1.0470873 1.114497

net.subgraph.layer_seq.glp_0.mlp.1.bias f4 [32]
000000 c1 a6 b3 3c df cc 31 3e 4a 01 11 be 73 8a cd bd
       0.0219301 0.17363308 -0.14160648 -0.10036173
000010 45 7e 15 3e 6b e5 9a ba 04 77 5d 3d 1c c1 83 3d
       0.14598949 -0.001181764 0.05406858 0.06433317
000020 65 22 f8 bd ac 66 31 bd 25 36 b6 bd 12 69 cf 3d
       -0.12115935 -0.043310806 -0.08897046 0.101274624
000030 26 65 5b bd d6 4e a1 3d a5 4d 88 bd 15 35 c9 3b
       -0.05356326 0.07876365 -0.066554345 0.006140361
000040 54 fa f2 bc b5 eb 4e bd 13 6d ed bc 4f 65 e7 3d
       -0.029660381 -0.050517756 -0.028982675 0.1129862
000050 79 c3 84 be 49 64 f3 3c 51 d7 03 be eb c9 90 3d
       -0.25930384 0.029710906 -0.12875105 0.07069763
000060 d8 00 53 bd 15 24 6e 3e cd 2e ef bc 55 e9 18 3d
       -0.051514477 0.23255952 -0.029197121 0.037331898
000070 5f fe 7f bd b5 28 ed 3c 40 9e e5 3b 9c f0 1f bc
       -0.062498447 0.028950075 0.0070073903 -0.009761956

net.subgraph.layer_seq.glp_0.mlp.3.weight f4 [5, 32]
000000 fb d7 91 3d 1a df 2a be 40 ad ea 3c 67 49 69 3d
       0.07121273 -0.16686669 0.028647065 0.056954768
000010 ba a1 8c 3d e4 ed 82 bd 71 12 0c be 36 56 8e bd
       0.068667844 -0.0639303 -0.1367891 -0.06950037
000020 1b dd 47 3c b7 71 82 be b4 27 94 3d 9c 5c 11 3e
       0.012198712 -0.25477383 0.07234135 0.14195484
000030 dd fb 20 be db e2 90 3d 71 d6 51 be 03 2c 9d 3c
       -0.15721078 0.07074519 -0.20491959 0.019186025
000040 fd 1a 88 bd 74 87 26 3e 6b 5f 5c 3d d5 80 2b 3c
       -0.066457726 0.16262609 0.053801935 0.010467728
000050 75 af 3e be 58 ad 84 3e 95 2e a1 bd c5 60 e9 bd
       -0.18621619 0.259135 -0.07870213 -0.113954104
000060 a6 b9 19 3e 7e 79 0e 3d 73 79 0c 3d ac da 01 be
       0.15012226 0.034783833 0.03429551 -0.12681073
000070 0f 81 f8 3c 16 63 2c be cd 9f 4c bb 89 7a 86 3e
       0.030334977 -0.16834673 -0.0031223178 0.26265362
000080 29 91 a0 bd b0 cf 2a 3e 00 69 42 bd 6c d2 c7 bd
       -0.07840187 0.16680789 -0.047463417 -0.09756932
000090 50 9c 52 3e 4d 59 7a bd da 85 a4 3e fb 0a bf 3d
       0.20567441 -0.06112032 0.3213337 0.09328266
0000a0 aa 2a ca bd 94 21 a6 bd 63 1d 25 3e 2d 55 6e be
       -0.09871419 -0.08111873 0.16124491 -0.2327468
0000b0 dc 80 29 3e f6 97 4f bd 9d a2 40 be d4 77 5c 3e
       0.16553062 -0.05068203 -0.18812032 0.21530086
0000c0 5d c1 88 be 44 aa db 3b a2 2e c3 3d e2 5d 63 3e
       -0.26710024 0.006703647 0.09530379 0.22203782
0000d0 03 05 e7 3b a1 89 a4 bd 3f 15 0d be 53 2f 45 bd
       0.007050158 -0.08034063 -0.13777636 -0.048140835
0000e0 d4 75 6c 3e f3 e9 ab be 9d 9b 0a 3e 61 b9 40 be
       0.23091823 -0.33576927 0.13535924 -0.18820716
0000f0 60 bb 0c be ff 66 0f 3e e4 dd 66 3e e5 70 3b 3e
       -0.13743353 0.14004134 0.22545582 0.18304785
000100 59 65 c9 3d 52 4e 1b 3d 94 1c c7 bd 97 3c 12 3e
       0.09833784 0.03791649 -0.09722248 0.14280926
000110 f8 20 fd 3d 66 25 a3 3d dd cf 86 3e 16 5f 1b 3d
       0.12359804 0.079661176 0.26330462 0.037932478
000120 0a ca 77 3c c3 f0 bd bd 1e cd 74 3d 68 00 66 3e
       0.015123853 -0.09274437 0.059765927 0.22461092
000130 c8 cd 47 3e 61 6a d8 bc c4 3a ad 3d d0 91 37 3d
       0.19512093 -0.026417913 0.08458474 0.044816792
000140 86 3b 0c bd 15 a0 61 bc ce 41 2e 3e 82 03 c7 bd
       -0.034236453 -0.013771077 0.1701729 -0.09717466
000150 f4 f3 8f bd dc 58 d6 3d 55 59 9f 3c e8 a7 66 3d
       -0.07028952 0.10466167 0.019451777 0.05631247
000160 9c e0 97 3d 87 7c 8b 3e 0c 98 8f 3e a7 1f 4a be
       0.07415888 0.27243444 0.2804569 -0.19738637
000170 72 66 a9 bd 25 b5 58 3e 4c 50 b9 3c b6 52 97 bd
       -0.08271493 0.21162851 0.022621296 -0.07388823
000180 e0 4f 51 3e ab 91 d2 3e 58 2d 98 3c 48 0e a2 be
       0.20440626 0.4112676 0.01857631 -0.3165152
000190 5c 8d ac 3e db f3 dc bd 0f 31 3f be 87 52 5c 3e
       0.337016 -0.10788699 -0.18671058 0.21515857
0001a0 b5 f1 e9 3c f9 2d 76 be 14 5f 7d 3e cd 24 7f 3d
       0.028557638 -0.24040975 0.247433 0.062290955
0001b0 56 f1 f1 bd ff 74 f5 3c 4e 68 33 3e 8e bb 32 3c
       -0.11813609 0.029963015 0.17520258 0.010908974
0001c0 71 5a 41 3e d9 5a 2f 3e df ad 90 bc e8 15 04 be
       0.18882157 0.171245 -0.017661033 -0.12898982
0001d0 83 74 8b bd 07 bb 33 3d d0 75 70 bd 30 61 ab be
       -0.06809332 0.043879535 -0.058706105 -0.33472586
0001e0 1b 98 03 be 00 68 70 bd 23 7e 1f 3d 2f ac 27 3e
       -0.12850992 -0.058692932 0.038938653 0.16374277
0001f0 7d 54 38 be 8b 9f 29 be 1c 18 f1 bd 10 a7 ac bc
       -0.1800098 -0.16564767 -0.117721766 -0.021075755
000200 30 fb 8f 3d 8f 9f 86 3d 79 50 91 3c 4e a1 4d 3e
       0.07030332 0.06573402 0.017738568 0.20081064
000210 ab 91 e2 bc bc bd 22 be 83 32 64 be 52 d6 e8 bc
       -0.02765735 -0.1589269 -0.22284894 -0.028422508
000220 a4 f0 f9 bd 65 a9 24 3e 5c df bb 3d 4e 40 49 be
       -0.12204102 0.16080244 0.09173462 -0.19653437
000230 21 e8 e7 3c 96 8b aa 3d 7a 75 0f 3e d9 ea 0b be
       0.02830893 0.08327405 0.14009658 -0.13663806
000240 a1 b0 3b 3e 4b 59 bd bd 88 d2 9f 3d a9 d9 95 be
       0.18329097 -0.09245547 0.078038275 -0.29267624
000250 10 3a 2a bb 6a 04 b2 bd 90 03 dd bd 9d 77 22 be
       -0.002597455 -0.08692248 -0.10791695 -0.15865941
000260 9c d5 9a bd 9f e7 ab 3c 09 b7 0c be 4c 3b 33 bd
       -0.07560274 0.020984469 -0.13741697 -0.04375772
000270 2b 0d ac 3d 24 df ee 39 ac af 73 3d be d1 d0 bd
       0.08400949 0.0004556115 0.059493706 -0.10196255

net.subgraph.layer_seq.glp_0.mlp.3.bias f4 [5]
000000 16 e1 08 be 60 18 d3 3d a6 9a 05 bd 56 35 d8 3d
       -0.13367113 0.103073835 -0.032618187 0.10557048
000010 60 ff 16 bd
       -0.03686464

net.subgraph.layer_seq.glp_1.mlp.0.weight f4 [32, 10]
000000 3e 6c 6f 3e be 4a ab be 78 e3 d5 3d a0 bc 23 3e
       0.23381135 -0.3345546 0.10443777 0.15989923
000010 0b 4b 94 be 2d c7 8e be 3b d6 41 3e 17 21 88 be
       -0.28963503 -0.27886334 0.18929379 -0.26587746
000020 03 28 94 3e 47 6c 25 be 0d 55 ca be 16 67 c1 3d
       0.28936777 -0.16154586 -0.39518014 0.0944349
000030 4a eb 91 be 36 2a ea be 57 40 33 3e b5 02 62 3e
       -0.28499824 -0.4573533 0.17505012 0.22071345
000040 7a 83 52 3e db 13 ee 3d 2c 77 5e 3e fe d7 be 3c
       0.20557967 0.11624881 0.21725148 0.023296352
000050 bd 37 48 be 46 72 da 3e 3a 27 19 be eb 73 ce 3e
       -0.19552512 0.4266531 -0.1495637 0.40322813
000060 2b 35 42 3d 0f db 89 3d 81 4d f7 3d 59 3d 85 be
       0.047413986 0.06731235 0.120753296 -0.26023367
000070 53 11 0e 3e bd 33 c5 bd 58 39 54 be 88 59 ee bd
       0.13873796 -0.09629009 -0.20725 -0.116381705
000080 4a 02 2e 3e 60 94 03 be 18 35 55 bd 2d c7 cc be
       0.1699306 -0.1284957 -0.052052587 -0.3999571
000090 87 e3 a3 3e 02 ed 92 be 30 5c 7c 3d 3e 69 b4 3d
       0.32009527 -0.28696448 0.061611354 0.08809136
0000a0 5a 52 28 3d fc 43 d1 be fd 90 22 be 36 cc 43 be
       0.04109416 -0.4087218 -0.15875621 -0.19120869
0000b0 d1 52 f8 bd 47 8d 88 bd 04 44 2c be 9c ef c9 3a
       -0.12125171 -0.066675715 -0.16822821 0.0015406492
0000c0 cd 89 4f 3e 80 0e a3 3e 41 a2 17 be 20 f8 6f 3e
       0.2026741 0.31847 -0.14807989 0.23434496
0000d0 62 82 67 bd 30 bd 62 3e 67 21 48 be 06 9f 1a be
       -0.056520827 0.22142482 -0.19543992 -0.15099725
0000e0 20 df 55 bd b9 b5 c6 3d 5e e8 b2 3d ca ce 55 bc
       -0.05221474 0.097026296 0.08735727 -0.013049791
0000f0 a7 40 5b be 2e 18 08 3d 12 53 6a bd 30 e4 98 3e
       -0.21411382 0.033226185 -0.05720813 0.29861593
000100 c4 aa 13 3d d2 82 cb 3b c6 81 72 3c 4d e1 4f 3d
       0.036051527 0.0062106634 0.014801448 0.050751973
000110 fa 4c 85 be 1b 51 27 3d be 83 be bc 67 55 77 3d
       -0.2603529 0.040848833 -0.023256179 0.06038418
000120 82 ec 32 3e 37 c0 e8 3e 46 70 2c be da 53 47 3e
       0.17473033 0.45459148 -0.16839704 0.1946558
000130 0f 0c ac 3e dc 1b 98 3e b6 32 f4 3c 86 ef 48 bc
       0.3360295 0.29708755 0.029809337 -0.012264138
000140 00 df 2b 3b 47 05 92 3d 21 82 67 be 60 40 96 be
       0.0026225448 0.07129913 -0.22608234 -0.2934599
000150 5e 60 1a 3e cd ba f4 3c f8 08 52 3e 64 22 af 3d
       0.15075824 0.02987423 0.20511234 0.08551481
000160 19 54 8c 3e e8 7b b1 be 7c 7a 6e bd f1 12 83 be
       0.2740791 -0.34664845 -0.05822228 -0.2560039
000170 4c d5 53 be f7 39 d6 be b2 f0 90 bd 96 5c e4 bd
       -0.20686835 -0.418411 -0.07077159 -0.11150472
000180 03 45 53 bd 4f eb 5f be 09 c7 35 be 11 19 9d bc
       -0.051579487 -0.21867107 -0.17751707 -0.019176992
000190 ce c0 c5 be a3 d3 b0 3e 6c 50 4c bd be 37 2f 3e
       -0.3862366 0.34536466 -0.049881384 0.17111108
0001a0 5f ff 7e be a7 1c 5d 3d dc 5a 36 bd 9f e3 63 be
       -0.24902104 0.053982403 -0.044520244 -0.222548
0001b0 1d 3f a7 3d 2d 33 88 be 9d 3b 2c 3d e7 94 92 3e
       0.08166335 -0.26601544 0.04204904 0.28629228
0001c0 c3 cd b8 bd 4f 61 0b 3e 80 b6 71 be 63 50 6c 3d
       -0.09023621 0.13611339 -0.23604774 0.05769385
0001d0 95 81 29 be 4e b7 d8 3e b3 ba fe 3d 48 3e b2 bc
       -0.16553338 0.4232735 0.12437954 -0.021758214
0001e0 d5 47 af 3e ea 36 eb be 8e 90 0e be bb 79 a2 3d
       0.3423449 -0.45940334 -0.1392233 0.079333745
0001f0 d7 77 73 be 18 b0 d4 3d 09 1b 4e be 5e 31 f4 be
       -0.23776184 0.1038515 -0.201275 -0.47693914
000200 a3 78 01 be 1b 3a 3b be a4 27 c7 bd 27 bf cb 3d
       -0.12643676 -0.18283884 -0.09724358 0.09948569
000210 f5 1f 60 3e ee 96 c4 be 4c f2 3d 3e 2d d5 d4 be
       0.2188719 -0.383964 0.1854946 -0.4156889
000220 85 08 f6 3d 8c a1 95 3e 86 1d ea be c3 ec 66 be
       0.12013344 0.29224813 -0.4572565 -0.22551255
000230 6d bb 9b be 1f c9 02 be 59 53 45 be f6 f3 89 be
       -0.30416432 -0.12772034 -0.19270076 -0.2694394
000240 93 aa e1 3d b8 c2 a9 bd 12 22 86 3e df b1 cd be
       0.110188626 -0.08289093 0.2619787 -0.40174767
000250 b8 1c 04 be 4b 34 06 3d 91 51 60 be 91 b4 84 3e
       -0.1290158 0.032764714 -0.21906115 0.2591901
000260 92 14 54 be 06 81 c9 bd d1 92 52 be 79 3c 32 3d
       -0.20710972 -0.098390624 -0.20563819 0.043514702
000270 0f 7e 40 be 33 38 b3 3e 4d 1d 6e be d2 0a 34 be
       -0.18798088 0.35003814 -0.23253365 -0.17582253
000280 3f 0b 42 bd 42 f4 9e be 6b cb a0 be 5a 6e 9b 3d
       -0.047374006 -0.3104573 -0.31405196 0.07589407
000290 9e 40 43 3e 3d f5 88 3d 44 2b 44 be cf 14 9d 3d
       0.19067618 0.066874005 -0.1915713 0.076699845
0002a0 e6 48 b6 3d 9f d6 a9 be 9b 22 9f bd ae 02 46 3e
       0.08900623 -0.33171555 -0.07770272 0.1933696
0002b0 e5 ca 3b 3d f9 89 ea be 1c d9 21 bd 4a 4d 6a be
       0.045847792 -0.4580839 -0.039513692 -0.22881046
0002c0 60 29 83 be a4 85 e6 bd c2 61 8f 3e f0 1d 7a be
       -0.25617504 -0.11255959 0.2800427 -0.24425483
0002d0 15 39 45 3e 40 54 be be 86 00 88 3c fa 19 81 3e
       0.19260056 -0.37173653 0.016601812 0.2521513
0002e0 ce e3 8c be c2 41 60 be 69 2f c3 bd c6 65 94 be
       -0.2751755 -0.21900085 -0.09530527 -0.28983897
0002f0 ee 5e e6 3d 4d ee 7e be f4 b1 88 be dc 4b df 3e
       0.11248575 -0.24895592 -0.26698267 0.43612564
000300 6a c9 e2 3d d2 53 50 be 1e 53 f2 bc 1b 2c 96 bd
       0.11073573 -0.20344475 -0.029580649 -0.07332631
000310 0a 00 6c 3e 2c ff c4 be b7 26 6b be 53 f6 de 3d
       0.2304689 -0.3847593 -0.22963987 0.10886826
000320 fa 6c 63 3c 89 9b da bd 1e 0a a0 3e 39 09 0c 3e
       0.0138809625 -0.10674197 0.3125772 0.13675393
000330 13 19 95 be f8 c9 4e 3e dc 46 97 3d ad 7b e0 3d
       -0.29120693 0.20194232 0.07386562 0.10961089
000340 88 7a 8a be 1b 27 c8 3d 55 5e 9d 3d 39 be bc be
       -0.2704661 0.09773084 0.07684008 -0.36863878
000350 40 48 b1 be 29 5e 54 bd b1 27 4c be d1 a3 87 be
       -0.34625435 -0.05184761 -0.19937016 -0.2649217
000360 5a df b0 3e 07 c2 05 3e dd 9f e1 3d 2e 02 c2 3d
       0.34545404 0.13062297 0.110168196 0.09473072
000370 23 c1 cb 3e 4b 83 7d 3d 3d f1 dd 3d 9c a3 af 3e
       0.3979579 0.06189279 0.10837028 0.34304512
000380 f1 38 10 bd ef 9b c8 3e f0 64 2f 3d 61 86 85 3e
       -0.035210554 0.39181468 0.04282087 0.26079085
000390 89 b7 0f be 18 21 25 be 4b fb 7a 3e f9 80 bc bd
       -0.14034857 -0.16125906 0.24509923 -0.09204287
0003a0 92 89 dc 3d 47 14 bc 3e 4d dc fc 3c ce db 86 be
       0.10768427 0.3673422 0.030866766 -0.26339573
0003b0 1f 5b 15 be 01 df 19 be c8 b4 ac be b0 f7 c1 3d
       -0.14585541 -0.15026475 -0.33731675 0.09471071
0003c0 13 14 5c 3d 44 87 19 3d 51 61 43 3e 62 28 8b 3e
       0.05373008 0.037482515 0.19080092 0.27179247
0003d0 7e 11 7b 3d 6e 12 36 3e 02 de c1 3d b1 8a 08 3e
       0.06129598 0.17780468 0.09466173 0.13334157
0003e0 78 85 bb 3b 42 57 7d 3d 88 e9 54 3e 25 15 ca 3e
       0.005722698 0.061850794 0.2079221 0.39469257
0003f0 b7 29 b3 3e e7 1c da bd 92 59 c3 bd c8 b2 a7 3e
       0.34992763 -0.10650044 -0.095385686 0.32753587

net.subgraph.layer_seq.glp_1.mlp.0.bias f4 [32]
000000 18 02 aa bd ea 44 15 bd c1 d0 ee 3d 63 5e 1c be
       -0.083011806 -0.036442675 0.116609104 -0.1527038
000010 54 eb b5 bd e3 92 26 be 34 e8 28 bb 9a e1 6a bd
       -0.08882776 -0.1626697 -0.002577317 -0.057344057
000020 c0 b6 0e be 0e 1c 51 3d 90 7e 08 be 6f 34 74 3e
       -0.13936901 0.051052146 -0.1332953 0.23848127
000030 73 62 e8 3c bd cb 1b be b3 d9 5c 3e 4f 40 d1 3d
       0.028367257 -0.15214439 0.2156742 0.10217344
000040 f2 a0 09 3e 15 29 ac bd 41 c7 0a be c1 eb 81 be
       0.13440302 -0.08406273 -0.13552572 -0.25375178
000050 17 59 12 ba 9b ff 42 3e db e7 ec 3d 0d d5 5f 3d
       -0.00055827334 0.19042818 0.115676604 0.05464654
000060 f0 2e 88 3d b7 fe 5e be 0a 20 72 be 46 bd d0 bb
       0.066495776 -0.21776854 -0.23645034 -0.0063702194
000070 05 f0 bb be 60 36 12 be bf 11 53 be 5f 9d 85 3d
       -0.36706558 -0.14278555 -0.20612238 0.06524157

net.subgraph.layer_seq.glp_1.mlp.1.weight f4 [32]
000000 3d 4d 85 3f 9a 10 92 3f b2 61 92 3f a5 31 7b 3f
       1.0414196 1.1411316 1.1436064 0.98122627
000010 9b 53 88 3f 1e be 62 3f 40 82 86 3f 31 27 89 3f
       1.0650514 0.88571346 1.0508499 1.0715085
000020 5a 3f 8b 3f a1 52 90 3f 2b 25 85 3f 0b 8f 8a 3f
       1.0878708 1.1275216 1.0401968 1.0824903
000030 67 3d 8b 3f 43 6c 84 3f 66 a5 8d 3f 9b cc 83 3f
       1.0878114 1.0345539 1.1066101 1.0296816
000040 41 25 72 3f d2 85 7d 3f e1 c7 8c 3f f6 a5 85 3f
       0.94588095 0.9903232 1.0998498 1.0441272
000050 97 12 88 3f fd 25 87 3f 3c 83 6f 3f 7f 92 77 3f
       1.0630673 1.0558468 0.9355962 0.9670791
000060 43 ea 83 3f 1c 31 8d 3f 69 90 64 3f 65 e1 80 3f
       1.0305866 1.1030612 0.8928285 1.0068785
000070 64 96 75 3f ac 53 89 3f 43 30 89 3f d7 4a 8b 3f
       0.959326 1.072866 1.0717853 1.0882214

net.subgraph.layer_seq.glp_1.mlp.1.bias f4 [32]
000000 3c c3 26 3d b5 12 1e 3e c0 6e 35 3c ed d2 a7 39
       0.040713534 0.15436824 0.011073768 0.00032009874
000010 7a 28 9f bd c2 e0 95 bd 22 66 79 3d 03 ac 06 3d
       -0.07771392 -0.0731826 0.060888417 0.032878887
000020 90 51 ab 3d 78 cc 41 3e 5c 1b 05 3d c7 50 c6 3d
       0.08365166 0.18925655 0.032496795 0.09683376
000030 73 f1 94 3d 98 d0 3b 3d 5c 2b 94 3d 00 d0 97 3d
       0.07272615 0.045853227 0.07234833 0.0741272
000040 69 0d cc bd a5 cb 80 3d 3d 20 25 3e 17 fe ab 3d
       -0.09963495 0.06288842 0.16125579 0.08398073
000050 7a 45 c7 3d 17 52 b4 3d cb 36 f1 bd 22 4a 32 bd
       0.097300485 0.0880472 -0.11778029 -0.04352773
000060 03 35 79 3d 5f 25 29 3d 16 dc 81 be 43 e6 26 3d
       0.06084157 0.041295405 -0.25363225 0.04074694
000070 a7 51 9b bd 5d fd c3 3c 74 30 5a 3d b7 ed 29 3d
       -0.07583933 0.023924524 0.053268865 0.04148647

net.subgraph.layer_seq.glp_1.mlp.3.weight f4 [10, 32]
000000 cf d5 30 3d 8d 55 d1 3d 3d bc 78 3e c7 29 cb 3c
       0.043172654 0.10221396 0.24290557 0.024800194
000010 3f 5d 55 bd a2 b2 e3 3d 40 1c a1 3e 1b a6 2f 3e
       -0.05209088 0.11118056 0.31466866 0.17153208
000020 f1 0a 83 bd 55 d2 80 3e d9 8e 2a 3d 76 58 5f 3e
       -0.06398571 0.2516047 0.041640136 0.21811089
000030 e3 61 dd 3d 7f 14 e3 3d 4e 34 8e 3e d0 34 1e 3e
       0.10809686 0.11087894 0.2777428 0.15449834
000040 33 5f 58 bd 9a ed d2 3d 2f d0 71 3e 57 20 00 bd
       -0.052825164 0.10299225 0.23614572 -0.03128084
000050 cc a2 4a 3e 18 15 60 3e d4 18 5c 3d 4a 7e 17 3e
       0.19788665 0.21883047 0.053734615 0.14794269
000060 9b 7b 08 3e d4 77 20 3e ba ba 0d 3e 70 e4 42 3e
       0.13328402 0.15670711 0.13840762 0.19032454
000070 f3 b5 a6 bd 2c 74 30 3d 3f 8f f7 bc f5 6a f1 3d
       -0.08140173 0.04307954 -0.030219672 0.117879786
000080 d1 ff ec 3d 4c 93 b5 3e 1b e4 bd 3e d4 ff b3 bc
       0.115722306 0.3546394 0.37088093 -0.021972574
000090 8b 87 4f 3e 8c 38 47 3d 00 db 8b 3d 98 95 77 3e
       0.2026655 0.04863791 0.0682888 0.24178159
0000a0 4f f7 77 3e 3e 54 6e 3e b7 8f e9 3d 4d 16 5b 3d
       0.24215434 0.23274323 0.114043646 0.053488065
0000b0 8b a4 7f 3e 8a e9 b6 3d 06 4b 79 3e 94 97 e4 bd
       0.24965112 0.08931263 0.24345025 -0.11161724
0000c0 b8 0d 1b 3e 43 a0 e2 bc 0f 0c 9b 3e 56 80 d9 bc
       0.15141952 -0.02766431 0.30282637 -0.026550453
0000d0 bf c8 e9 3d c1 f1 87 bd 44 6a af 3c e4 84 a6 3d
       0.114152424 -0.06637908 0.021412976 0.081308156
0000e0 05 f8 03 3e 2f 14 36 be 92 0a 38 be fb 2d 67 bd
       0.1288758 -0.17781137 -0.17972782 -0.056440335
0000f0 82 36 91 3d dc fc 41 3d 2c 23 b5 3d 44 36 64 be
       0.07090475 0.047360286 0.08844599 -0.22286326
000100 dc 66 ff bc 13 f0 3a 3e ab a5 f8 3d 9b 9d 18 3e
       -0.031176977 0.18255644 0.12140974 0.14903872
000110 19 4c 0d be ec 79 34 3e 16 5e 07 3e cb 0d 4e 3e
       -0.1379856 0.17624635 0.13219485 0.20122449
000120 11 8d 55 3d 81 0f 09 3e 7e ab 09 3e a4 c5 07 be
       0.052136485 0.1338482 0.13444325 -0.13258988
000130 8a f0 73 3e 30 1f 9b 3d 85 bd 88 bd 60 82 76 bb
       0.23822227 0.07574308 -0.06676773 -0.003761433
000140 c8 04 f1 3d 82 33 6e 3d 6e 34 b7 bd bf 88 0e 3d
       0.1176849 0.05815459 -0.08945547 0.03479838
000150 0c 90 23 3e ec 79 f8 3d f3 43 c4 bd 92 e3 80 3d
       0.15972918 0.1213263 -0.09583273 0.062934056
000160 ae 6b 49 3e bd d7 64 3e da 72 fd 3d 52 b1 28 3e
       0.19669983 0.22347923 0.12375422 0.16473892
000170 ba 04 ca 3d 33 61 4c bd fe 96 0b 3e 17 67 ae bd
       0.09864183 -0.049897384 0.13631818 -0.085157566
000180 5f cd cf 3d b7 b5 c5 3d df 7f 85 3e d4 6e c5 3c
       0.10146593 0.096538 0.2607412 0.024100699
000190 f9 01 52 3e ef 99 19 3e 58 44 a7 3d ae e9 fc 3d
       0.20508565 0.15000127 0.081673324 0.12349258
0001a0 ce 0d 32 bd 12 cc 12 3e db 3a 13 be f8 f8 42 be
       -0.043470196 0.14335659 -0.1437792 -0.19040287
0001b0 8e 90 28 3c 57 6c 37 3e 15 a4 19 bd 61 ae 38 be
       0.010288371 0.17912422 -0.037509996 -0.1803527
0001c0 5e 87 ba bd ef bc 82 bd 08 f5 0d 3d 63 37 15 3e
       -0.091078505 -0.063836925 0.034657508 0.1457191
0001d0 fb 05 40 be 82 ae 99 3d 83 c3 d1 bb 80 66 ee bb
       -0.18752281 0.07503988 -0.0064014806 -0.0072754025
0001e0 65 67 73 3c e8 6b ae be a3 af b9 bd be 42 f8 3d
       0.014856194 -0.340667 -0.09066703 0.12122105
0001f0 40 58 8f 3c 10 95 b2 bd 5d 77 48 be 8c b6 6b 3d
       0.017498136 -0.08719838 -0.19576783 0.057547137
000200 55 75 52 3e 0f 5b 80 3e 97 5a ea 3d a4 15 82 3d
       0.20552571 0.25069472 0.1144306 0.06351784
000210 4d 3b 91 bc 25 16 c8 bb 84 89 77 3d 95 42 28 bd
       -0.017728472 -0.0061061555 0.06043388 -0.041079123
000220 be 14 69 3e 14 a5 a1 bd eb d7 b1 3d 09 af 6c 3e
       0.22761819 -0.07892814 0.08683761 0.23113646
000230 9a 71 b9 bd ce ab bd 3c 03 db 6b 3e 71 22 95 bb
       -0.09054871 0.023153212 0.23032765 -0.004551225
000240 97 29 88 3d 82 a5 04 3e 2e 56 50 bd f9 80 51 3e
       0.06648558 0.12953761 -0.050863437 0.20459355
000250 bf c8 6e 3e 5b 69 fe 3d a1 60 f3 3d fd 1f 63 3d
       0.23318766 0.12422439 0.11883665 0.05545043
000260 c8 fa 0d 3e d8 8b 47 bc 31 94 76 3a 68 69 3f 3e
       0.13865197 -0.012179337 0.00094062375 0.18692553
000270 bb aa c0 3d 9d b4 a2 3e 28 b0 28 3e 99 71 87 3e
       0.09407564 0.31778422 0.16473448 0.26453856
000280 72 0e 52 3d 1d a5 bf 3c 85 0c 3a be 45 53 2e 3e
       0.051283307 0.023394162 -0.18168838 0.17023952
000290 f8 3e 63 3e 86 57 3a 3e fc 20 73 3d e4 bf 35 3e
       0.2219199 0.1819745 0.05935763 0.17748982
0002a0 b7 05 cf 3b bb dc 3a 3e d1 2e 80 3e 5e 29 5f 3d
       0.00631782 0.18248264 0.25035718 0.05448281
0002b0 f6 38 af bd ec 4b 25 3e 11 58 ed 3c d1 57 4a 3e
       -0.08555786 0.16142243 0.028972657 0.19760062
0002c0 19 d1 88 3e cf 19 5e 3e 00 e4 5f 3d e7 e3 48 bc
       0.2672203 0.21689533 0.054660797 -0.012261367
0002d0 95 d5 ae 3d 64 07 73 3d f0 5b 0b be 16 c3 ad 3d
       0.08536831 0.05933322 -0.1360929 0.08484475
0002e0 0d ee 66 bd 42 7a 7b 3e 2f 1b 8a bc 34 ce 66 bc
       -0.056379367 0.24558356 -0.016858665 -0.014087249
0002f0 3c ad f5 bd ef 16 83 3e 2a 29 50 3e 90 45 90 3e
       -0.119959325 0.25603434 0.20328203 0.28178072
000300 1b 0d f6 bd a6 50 9a be 0a 7a a6 bd b7 79 73 be
       -0.120142184 -0.30139655 -0.08128746 -0.237769
000310 81 43 9a bd 34 32 47 be 4f 34 e4 bd d8 d5 4c be
       -0.075324066 -0.19452745 -0.111427896 -0.2000345
000320 2d bc 23 bd db 43 bb bd 56 bd a7 be b6 63 32 bc
       -0.03997438 -0.09143802 -0.3276164 -0.010888031
000330 02 e3 94 be 94 9f e6 bd 98 4c a4 3c 87 b6 75 be
       -0.29079443 -0.11260906 0.020056054 -0.2399541
000340 cc 2f c6 bd f9 79 fe 3d d8 2f 84 be 3b 30 98 be
       -0.09677085 0.12425608 -0.25817752 -0.29724297
000350 99 3b 92 be 1f 37 d3 bd 60 88 56 be 00 58 16 be
       -0.28561094 -0.10313248 -0.2095046 -0.14682007
000360 a9 bb a8 3c 50 69 83 be 5f 4d a1 bd 6a 29 96 be
       0.020597296 -0.25666285 -0.078760855 -0.2932847
000370 d9 b8 a1 bd 8f ba 92 3d d4 a4 34 be 61 f4 a7 bd
       -0.07896585 0.071644895 -0.17641002 -0.082009085
000380 2f 4c fe 3c 46 27 99 3c 8b 74 8b 3e a4 49 01 3e
       0.031042187 0.018695485 0.27237353 0.12625748
000390 71 56 5f 3e a8 6f 9c bd 03 55 18 3d b0 f7 c1 bc
       0.21810319 -0.07638484 0.03719045 -0.023677677
0003a0 a7 39 51 3e 03 fe d9 3d 91 e2 a2 bd ea 76 3b 3e
       0.20432149 0.10644152 -0.0795337 0.18307081
0003b0 60 21 50 3e 6b 7c 81 3e 36 d8 50 3e 82 88 10 3e
       0.20325232 0.25290236 0.20394978 0.14114574
0003c0 5f aa 2f 3d 29 c6 6a 3d 69 ca 1b 3d 33 15 53 3b
       0.042887088 0.057317887 0.03803483 0.003220868
0003d0 9c 5f 92 3b 8e b1 be 3d 64 55 a9 3c 02 74 b0 3d
       0.004466964 0.093112096 0.0206706 0.08615877
0003e0 69 79 2f bd 5c b5 94 bd e8 da 9a bd 42 ae 3d bd
       -0.042840395 -0.07261154 -0.07561284 -0.046308763
0003f0 13 ff cb bc d5 41 e8 bd 50 5e ea 3d 60 dd ea bd
       -0.024901902 -0.113406815 0.1144377 -0.11468005

net.subgraph.layer_seq.glp_1.mlp.3.bias f4 [10]
000000 8d dd a9 3d be 1f 8e bd ca 85 29 3e 85 5c 77 bd
       0.082942106 -0.06939648 0.16554943 -0.060390968
000010 b2 35 f7 3d fd 36 d1 3d 03 de 87 bd d6 3e a5 3d
       0.120707884 0.10215566 -0.06634142 0.08068626
000020 32 6b fc 3d 42 73 61 3d
       0.123251334 0.05504156

net.self_atten_layer.q_lin.weight f4 [32, 20]
000000 20 6d bb 3d d6 1b 4b be 40 69 a0 bc ab d2 98 be
       0.09151673 -0.19834837 -0.019581437 -0.29848227
000010 fc 90 78 3e e5 8b 43 3e d9 b9 1d 3e b1 88 a2 bc
       0.24274057 0.19096334 0.15402927 -0.01984057
000020 b4 cd a1 3d c6 0c d7 3d 94 19 58 3d 51 e6 e7 bd
       0.07900563 0.10500483 0.05275877 -0.11323226
000030 3e 08 44 bd e8 09 61 be 43 26 c4 bb 2e c1 50 be
       -0.047859423 -0.21976435 -0.0059860065 -0.20386192
000040 de 6e 4e 3d 20 4d ea 3c 7b 36 55 3e f7 bb 88 bd
       0.0503987 0.02860123 0.20821564 -0.066764764
000050 56 3b 38 3e 46 3c 92 3c 5b 44 b5 bd 37 9b f5 bd
       0.17991385 0.017851006 -0.088509284 -0.119924955
000060 06 3c 01 3e fb a7 0e bd b2 09 17 bc 42 d9 77 3e
       0.12620553 -0.034828167 -0.00921862 0.24203971
000070 77 1f e1 bc 24 03 b4 bc de 28 e7 bc 50 8b 85 3d
       -0.027480824 -0.021974154 -0.02821773 0.065207124
000080 99 8b 3d be be 9d 0f 3e 1a 9e 3d 3e e5 4f af 3d
       -0.18510284 0.14025018 0.18517342 0.085601605
000090 b0 65 13 be 42 49 08 bc 48 0e 3f be e4 2f 50 be
       -0.1439426 -0.008318247 -0.18657792 -0.20330769
0000a0 2b f4 8d 3e 32 a7 87 bd ed 49 ab 3d 64 72 a7 bd
       0.27725348 -0.06623687 0.083637096 -0.08176115
0000b0 3f 85 ef 3d 11 03 0e 3e 89 62 ac bd 03 1a 5c bd
       0.116953366 0.13868357 -0.084172316 -0.053735744
0000c0 aa d3 ba bb bf ab a8 be c2 71 55 3e 5a 34 3a be
       -0.005701502 -0.32943532 0.20844176 -0.18184033
0000d0 55 b9 55 3e 71 df 1a bd 39 cf 25 3d 2e 62 47 3e
       0.2087148 -0.037810747 0.040480826 0.19471046
0000e0 83 e5 d3 bd 7e ad a9 bd 0e 77 bd 3d 37 0b 68 bd
       -0.1034651 -0.08285044 0.092512235 -0.05665132
0000f0 c4 1c 74 bd b2 d9 f5 3d 25 ad 1d 3e 17 e0 f7 3d
       -0.059597746 0.12004413 0.1539808 0.121032886
000100 dc f9 28 be 86 b8 fd bc 88 eb 74 3d 8d 85 64 be
       -0.16501564 -0.030971777 0.059794933 -0.2231657
000110 10 6c 81 3e fa 91 64 3e 3b f5 0c be 8e 55 42 3e
       0.25277758 0.2232131 -0.13765423 0.18977949
000120 b5 7d 00 be 0d 9d f9 3d 0f 07 cf 3c 87 04 05 be
       -0.12547953 0.12188158 0.02527192 -0.12990008
000130 50 a2 2c 3e 4d a2 50 bd a1 2e 0e bd ee 9e 83 bd
       0.16858792 -0.050936032 -0.034712438 -0.06426798
000140 59 78 84 be 70 2d 2b 3e ac 1f 57 3c 9d 26 5e 3e
       -0.25873068 0.16716552 0.01313011 0.21694417
000150 54 56 80 3d a1 d5 c0 3d bd 30 3d 3d 5b fd 19 bd
       0.06266466 0.094157465 0.04618906 -0.037595134
000160 be 90 14 be 61 1a 84 3d 98 84 bd bd e0 26 2d 3e
       -0.1450834 0.06450344 -0.09253806 0.16909361
000170 68 1f b1 3d c5 85 b6 3b a3 5e 4f be 68 76 52 be
       0.086485684 0.005570146 -0.20250945 -0.20552981
000180 b8 9f 3f be 79 2f 20 3e 90 47 0f 3e ce dc 4a be
       -0.18713272 0.1564311 0.13992143 -0.19810793
000190 e8 a4 a0 be ea e9 b5 3e 44 e2 24 3e f4 39 4c 3d
       -0.31375813 0.35530025 0.16101938 0.049859956
0001a0 17 f8 44 be 7c 97 6c 3d b1 ce 99 3d ba e2 fb bd
       -0.19235264 0.057761654 0.075101264 -0.12299104
0001b0 f2 14 d2 bd 31 df e6 3d 0e c8 88 bd 58 1c 0e be
       -0.10257901 0.11273039 -0.066787824 -0.13878
0001c0 32 3b 17 be a0 1a 22 3e 2d fd 17 3d b9 4a 96 3d
       -0.14768675 0.15830469 0.03710668 0.07338471
0001d0 c9 65 26 be 15 ce 29 3d c8 fa 4b 3e d4 d2 fa 3d
       -0.16249765 0.0414563 0.19919884 0.122472435
0001e0 32 0c d2 bd 76 91 68 be a6 c3 88 3e a8 5e a8 bd
       -0.10256232 -0.22711739 0.26711768 -0.08221179
0001f0 bb e0 14 be 7f c2 00 bd e6 02 b4 3b 44 c0 d8 bd
       -0.14538853 -0.031435486 0.0054935096 -0.10583547
000200 d1 bb de 3d e2 94 51 bc 2e 75 0f 3b b9 a6 bc 3d
       0.10875667 -0.012791844 0.0021889913 0.09211487
000210 3a 8a 5f be 5c f4 9f 3d 3d ce 04 3d cf 36 13 be
       -0.21830073 0.0781028 0.032423247 -0.14376377
000220 05 94 27 3e c3 96 15 3e 6c f5 91 3d 70 d4 b6 bd
       0.16365059 0.14608292 0.07126889 -0.08927238
000230 64 f8 27 3e c9 e5 b3 3b 83 86 8f bd de 9a 51 be
       0.16403347 0.005490039 -0.07008078 -0.20469233
000240 4e 3b 11 3e 38 af 05 be 4f 16 31 3e 1b ee c1 3d
       0.14182779 -0.13055122 0.17293666 0.09469243
000250 e5 60 98 bd 53 ae 01 be 84 37 f0 bd 54 19 0d bd
       -0.07440356 -0.12664156 -0.11729339 -0.034447983
000260 c5 a0 12 be be f4 76 3d b1 01 de 3d 2d 90 8d bd
       -0.14319141 0.060291998 0.10840166 -0.06912265
000270 2d 71 f6 3d 1a 66 22 3e 26 29 4e be 86 11 14 be
       0.12033305 0.15859261 -0.20132884 -0.1445981
000280 4f 36 4d 3d 47 d9 f1 be ab 1d 8a 3d 85 91 89 bd
       0.05010062 -0.47236082 0.0674394 -0.06717209
000290 8f 8a 2c bc 78 ee a7 3d 0a 36 06 3e db ea 4a 3e
       -0.010531082 0.08199781 0.13106552 0.19816153
0002a0 4e 15 cb bd e9 2a 4c 3c 36 f0 22 be a5 4f 43 be
       -0.09916173 0.012461402 -0.15911946 -0.1907335
0002b0 f4 59 4b 3e 69 4b 06 3e 60 35 62 be 3c e8 08 3e
       0.19858533 0.13114704 -0.22090673 0.1336984
0002c0 79 61 24 be 2e ca 41 3e da d2 14 3d e2 51 92 bd
       -0.16052808 0.18924782 0.036333896 -0.07144524
0002d0 8a a7 79 bc 96 b2 ff 3d cd 88 7a 3d 55 34 43 bc
       -0.015237698 0.124852344 0.06116562 -0.011914332
0002e0 d6 12 88 3c 5b a0 d0 bd 6a c6 63 bd a0 14 37 be
       0.016610544 -0.101868354 -0.055609144 -0.17878962
0002f0 72 f7 1a be 8b 86 f3 3d 3e 98 a4 3c 9b c5 4f be
       -0.15133455 0.118908964 0.020092126 -0.20290224
000300 49 ca 78 3d 01 12 93 3d c5 b0 d3 bd 06 05 d2 3c
       0.06073979 0.07181168 -0.103364505 0.025637161
000310 99 5c f2 bd 0d d5 45 be b3 5e 1a bd ff 4b 17 3e
       -0.11834068 -0.19319554 -0.03768797 0.14775084
000320 e9 f3 16 be cb ab 9e be 96 6c f0 3c 2f 80 95 3a
       -0.14741482 -0.30990443 0.029348653 0.0011406
000330 e7 20 a4 be 1d 74 b5 bd 21 63 63 3c 2e 45 21 bb
       -0.32056352 -0.088600375 0.013878615 -0.0024607885
000340 66 c0 70 bc 27 ef 53 3e 82 41 49 be 36 ed 71 3d
       -0.014694309 0.20696698 -0.19653895 0.059064113
000350 77 34 a8 bc 9d 67 46 bd 7b dd 81 3d 19 23 4e be
       -0.02053283 -0.048438657 0.06341072 -0.20130576
000360 c6 ae 23 be 3b a1 50 be 74 56 a1 bd 02 51 ca 3d
       -0.1598464 -0.20374005 -0.07877818 0.09878732
000370 69 53 36 3e 5c 89 24 3e 0f c4 26 3d 0c db 25 3e
       0.17805256 0.16068023 0.04071432 0.16196841
000380 ec ad a5 3d ea 91 24 be 41 61 9a be a8 9c a6 3d
       0.080898136 -0.16071287 -0.30152324 0.081353486
000390 ae a6 90 bd 67 02 97 3d dd 84 99 3d 33 22 03 3d
       -0.070630416 0.07373505 0.07496045 0.032015037
0003a0 56 a5 c2 3d 60 71 4a be 72 64 f0 bd 59 43 3b be
       0.095041916 -0.19769812 -0.117379084 -0.1828741
0003b0 b1 13 5d bd ce 9d 21 be 93 ef 1d bc ba db d1 bd
       -0.053973857 -0.15782854 -0.0096396385 -0.10246988
0003c0 cc bc 0c 3e 38 ff 6b be 8a 58 32 be 04 d8 de 3d
       0.13743895 -0.23046577 -0.17416587 0.108810455
0003d0 37 13 92 3e cc 05 1a 3d ee 1f f2 bc e0 85 4e be
       0.28530285 0.037603185 -0.02955624 -0.20168257
0003e0 bc ce 07 3e d2 1c 16 bd 5e ee 1b bd 07 4d c3 bc
       0.13262457 -0.03664858 -0.03806912 -0.02384044
0003f0 93 35 60 bd f2 30 f6 3d 50 e0 12 be f3 7d 67 bc
       -0.054738592 0.12021054 -0.14343381 -0.01412915

net.self_atten_layer.q_lin.bias f4 [32]
000000 46 f8 1b bc b6 b8 6d 3e 79 fc 1a be f0 dc f0 3b
       -0.009519642 0.23214993 -0.15135373 0.0073505566
000010 88 d3 eb 3c a5 44 87 be 9f 2e 75 bc d0 07 16 3e
       0.02878739 -0.2641956 -0.014964729 0.14651418
000020 b2 a3 1f bb 3e 2b 79 be 7c 77 94 3d 0a 15 fb bd
       -0.0024359045 -0.24332902 0.07249352 -0.12259872
000030 f8 47 32 3e d7 46 fd 3c 44 34 c1 bd 34 0f 14 be
       0.17410266 0.030917568 -0.09433797 -0.14458925
000040 ee 4e 8b 3e 61 75 04 3e 80 16 ab bd 3c e8 01 be
       0.27208656 0.12935401 -0.08353901 -0.12686247
000050 69 2f fa bd 28 8f a1 bd 24 03 d5 3c 8c 29 10 3e
       -0.12216074 -0.07888633 0.026002474 0.14078349
000060 13 c9 18 bc 10 5e 65 3e 00 8a 06 be cc 1e 3e bc
       -0.009325284 0.22399163 -0.1313858 -0.011604022
000070 da 5f ae 3c 0e 20 32 be 83 61 48 3d c5 f7 6b bc
       0.02128594 -0.1739504 0.04892112 -0.014402335

net.self_atten_layer.k_lin.weight f4 [32, 20]
000000 24 05 02 3e d6 9c aa bd 86 79 bd bd 6a ea 4e 3d
       0.12697273 -0.08330695 -0.092516944 0.050516523
000010 bc 83 e5 3d 47 37 83 3e 9a 41 bd 3e 20 b6 90 bd
       0.11206767 0.2562811 0.36964113 -0.070659876
000020 5d f4 82 bd 9d e1 55 bb 3d bd 02 3e 81 e7 eb bd
       -0.06394265 -0.0032635697 0.12767501 -0.11518765
000030 19 f1 0c be 6a e0 f0 3d ea b3 55 3d 17 cf 60 3e
       -0.13763846 0.117615536 0.052173533 0.21953999
000040 7b 50 99 bc 5f 70 23 be 2c 0d 9f bd ec 1c 85 3e
       -0.018715134 -0.15960835 -0.07766184 0.25998628
000050 08 ce a1 3e fb 22 5d bd bf ab 35 3d a1 43 7c be
       0.31602502 -0.053988438 0.044353243 -0.24635173
000060 bc 0c c3 3e 82 a8 cc bc fe 83 aa 3c aa cc c9 bc
       0.38095653 -0.024982695 0.020814892 -0.024633724
000070 2f 08 a1 3e 6d 87 82 3e a1 89 4a be f0 41 7d bd
       0.31451556 0.25493947 -0.19779064 -0.06183046
000080 be 05 ac bd 14 88 aa be da cd 85 3d 1b 27 52 3e
       -0.08399533 -0.33306944 0.06533404 0.2052273
000090 39 fd d3 bb 79 16 ab 3c 79 e8 70 be dc e6 42 be
       -0.0064693955 0.02088474 -0.23526181 -0.19033378
0000a0 95 1a b7 3d e0 e9 16 be 90 96 79 be 08 dd 94 bd
       0.08940617 -0.14737654 -0.24373841 -0.07268721
0000b0 2a 03 91 3d 75 fc a1 3d 99 94 51 3e 4d 9f 47 be
       0.070806816 0.079094805 0.20466842 -0.19494362
0000c0 89 36 03 3e 93 d4 87 3e b5 a8 05 3d 50 18 aa be
       0.12813772 0.2652937 0.032631595 -0.33221674
0000d0 3f 65 91 be 3e aa 19 be 9e ee ae 3d 1f e5 30 3e
       -0.28397557 -0.15006348 0.08541606 0.17274903
0000e0 80 3f 28 be 6f f6 06 3e 75 65 07 3e dc c6 67 bc
       -0.16430473 0.13179944 0.13222297 -0.014146533
0000f0 a6 7c 51 3d 2d c4 1c 3e 1e 0b 74 bd 0d 95 bc bd
       0.051144265 0.1530921 -0.059580915 -0.09208117
000100 c0 02 5f be df d0 3e 3a 4b bf ad bd 39 1e 75 be
       -0.21778393 0.0007279049 -0.08483752 -0.2393731
000110 6a e3 01 bd d0 8f 1b be f2 5a b8 3d 32 42 ae 3e
       -0.03171102 -0.15191579 0.090017214 0.34034878
000120 f5 c1 ae 3e e9 94 e5 3e d3 aa 36 be 25 96 3a bc
       0.34132352 0.44840172 -0.17838602 -0.011388336
000130 cc 50 b0 bd 48 bf 54 bd e2 2e f3 bd 83 a9 c7 3d
       -0.08609161 -0.051940233 -0.118741766 0.09749129
000140 20 20 9a bc 2b 6f 2f bd 9c 57 2a 3e 15 35 f2 3d
       -0.018814147 -0.042830627 0.16634983 0.11826531
000150 1d df 90 be 6f 27 a5 bc c5 13 8e be ae d9 7a 3e
       -0.28295222 -0.020160405 -0.27749458 0.244971
000160 48 57 bd bd b2 84 89 be 29 e6 40 3d 81 3e f8 bd
       -0.09245163 -0.2685905 0.047094498 -0.12121297
000170 ba cf e8 bc 17 40 13 3e 9a 93 cc 3d ca 2a 08 3e
       -0.028419364 0.14379917 0.0998909 0.13297573
000180 38 91 a6 bd 4e 63 ec bc e8 33 33 3b 56 cc 2e be
       -0.08133167 -0.028855946 0.002734417 -0.17070135
000190 94 71 16 be ce e3 54 3e 55 62 15 3e 3b 20 f2 bd
       -0.14691764 0.20790026 0.14588292 -0.11822554
0001a0 a0 6e 24 be 74 57 23 3e 22 d5 ba be d6 70 16 3b
       -0.16057825 0.1595133 -0.36490732 0.002295544
0001b0 4c 2b 09 be 68 d4 04 be 27 66 05 bd e7 76 a7 3e
       -0.13395423 -0.12971652 -0.032568123 0.32707903
0001c0 4f 3d 4c 3e f6 94 98 3d d8 55 55 be 00 da 1d be
       0.19945262 0.07450287 -0.20833528 -0.15415192
0001d0 75 52 4f bd 09 cd e3 3d 30 9e 51 3d 6d 38 32 be
       -0.050615747 0.11123092 0.05117625 -0.17404337
0001e0 25 69 87 bd 1f bb a4 bd 8d 71 e4 3d be 02 22 be
       -0.066118516 -0.08043503 0.111544706 -0.15821359
0001f0 6a e1 d7 bd 43 fe cc bd 6e 76 12 3e a0 94 20 3d
       -0.10541041 -0.10009434 0.1430299 0.03920424
000200 a5 9e 6b be 5b 1a e7 bc 3f 5e 50 3e 95 d4 25 3e
       -0.23009737 -0.02821081 0.20348452 0.16194375
000210 66 54 f5 3d 81 45 ca 3e d7 69 0c 3c 79 86 e1 bd
       0.11978988 0.39506152 0.008570156 -0.11011977
000220 ac 2a 08 3b ec f2 16 3e 06 8d e4 3d a0 c5 79 bd
       0.0020777388 0.14741105 0.111597106 -0.060979486
000230 cc bf 76 3e 05 e0 86 3d d0 e8 19 bb bd c0 3a be
       0.24096602 0.06585697 -0.0023484714 -0.18237586
000240 c9 4f 00 3e f6 0e f6 3d f0 5d b6 3e 39 0a b2 bd
       0.12530436 0.12014572 0.35618544 -0.08693356
000250 ab 88 58 3e c2 ec 24 3e 0e 11 b8 3d 2f 82 b9 bd
       0.21145885 0.16105941 0.08987628 -0.09058034
000260 5b 46 84 3c fb e4 5f be 99 f8 3d 3e ab fe a8 bc
       0.01614683 -0.21864693 0.18551864 -0.020629248
000270 ef 1a a3 3c f8 8e 7a bd 2c 93 3c be 3d 4c 3d bd
       0.019910304 -0.061171502 -0.18415517 -0.046215285
000280 af ac cb be 91 79 ed bd dc 52 05 be 63 e6 c0 bd
       -0.39780185 -0.115954526 -0.1301989 -0.09418943
000290 53 96 9d bd b9 b6 6a 3e a4 8e e2 3e 6d e6 91 bd
       -0.07694688 0.22921266 0.4424945 -0.07124028
0002a0 a4 23 fb bd 8c 85 9c bc b9 5b a1 3d 34 2b 90 bd
       -0.12262657 -0.019106649 0.07878823 -0.0703949
0002b0 aa 0d 9b be 87 4e 14 bd 70 45 5e bc ff b7 1d 3e
       -0.30283862 -0.036207702 -0.01356636 0.1540222
0002c0 fd 50 1b 3d 81 b0 bc 3d ca 87 f2 bd ad 20 69 3d
       0.037919033 0.09213353 -0.11842306 0.056915928
0002d0 14 3c ab bd 8c 30 18 3e 02 4f 02 be 0d b6 82 3e
       -0.08361068 0.14862269 -0.12725452 0.2552952
0002e0 d1 dd 65 be 77 78 2f 3d 3a 28 26 be c7 17 29 bd
       -0.22447897 0.042839494 -0.16226283 -0.04128244
0002f0 41 0b ba 3c ba 74 c3 bd 50 53 d5 bd 08 77 ab bd
       0.022710444 -0.09543748 -0.10416281 -0.08372313
000300 69 6a e3 bd b3 2a b7 3e 6d c9 f9 3d c0 39 01 be
       -0.111042805 0.35774764 0.12196622 -0.12619686
000310 5a fc b8 3d a6 49 d7 3c 61 06 f0 3c 63 ae e4 bd
       0.09032507 0.026280235 0.029299917 -0.11166074
000320 5b 45 86 be a5 e8 39 3e 37 ad 22 3e 67 76 85 be
       -0.2622479 0.18155153 0.15886389 -0.26066896
000330 77 d2 9f bc 9d b8 14 3e 4d 92 82 be 8f f1 2c be
       -0.019509537 0.1452355 -0.25502244 -0.16889022
000340 d1 91 92 be 46 56 92 3d 2b 38 6a 3e 82 c0 aa 3d
       -0.28626874 0.071453616 0.22872989 0.08337499
000350 bb 5e 91 bd 99 9b 28 3d 00 98 36 be 76 fb a4 bd
       -0.070981465 0.041164014 -0.17831421 -0.08055775
000360 9e bf 13 3e 83 7b 29 3e ce 08 b1 bb 13 98 02 be
       0.14428565 0.16551022 -0.005402661 -0.12753324
000370 49 d7 27 3e 4c d4 5e bc 01 c7 1d 3e 90 eb d7 3d
       0.16390719 -0.01360042 0.15407945 0.10542977
000380 21 ba 75 be 12 ce c6 be 1e 38 e4 bd 81 56 09 bd
       -0.23996784 -0.38829094 -0.11143516 -0.033529762
000390 8d b4 8a 3e 91 ac 5d bd 7f 3c 2c bd 0f e5 5c be
       0.27090874 -0.05411965 -0.04204988 -0.21571754
0003a0 c6 9c 75 be 45 75 43 be 47 6f bb 3d 6d f3 9f bd
       -0.23985586 -0.19087704 0.09152084 -0.07810102
0003b0 14 98 29 be eb 1b 43 be ec 46 47 3e 51 47 35 3d
       -0.1656192 -0.19053619 0.19460648 0.044257466
0003c0 72 ae 3c 3e fa fc d0 bd ec 90 c3 bc 51 5d 33 3d
       0.1842592 -0.102045015 -0.023872815 0.043790165
0003d0 e3 d5 54 3e fa 39 e0 bc e5 e6 db 3d 1b 11 10 3e
       0.20784716 -0.027371395 0.10737399 0.14069025
0003e0 13 e3 b7 bc 0d b1 49 3d 57 3d 87 be fd 14 55 3d
       -0.022447145 0.049241114 -0.26413986 0.05202197
0003f0 1d 87 e7 bd 7e f7 f1 bd 0d fb 75 3e 9e b5 47 3e
       -0.11305068 -0.118147835 0.2402155 0.19502875

net.self_atten_layer.k_lin.bias f4 [32]
000000 72 88 f7 3d e4 f1 33 be c2 a3 25 3b 49 03 4c 3e
       0.12086572 -0.17572743 0.002527461 0.19923128
000010 a9 bd 2a 3e da 4d ca 3d fa c6 98 3c 86 70 fc 3d
       0.16673912 0.0987813 0.018649567 0.1232615
000020 6a 67 29 3c 8b b0 37 3e 7d 73 08 3e 21 d0 5e 3e
       0.010339597 0.1793844 0.13325305 0.21759082
000030 2a 75 8c bd 66 46 fc 3d 51 f2 2a 3e 2e c8 da 3d
       -0.06858285 0.12318115 0.16693999 0.106827125
000040 c7 94 09 be 34 3e a8 3d bc 82 d4 bd 4d ed 50 be
       -0.1343566 0.08214989 -0.10376498 -0.20403023
000050 b3 01 4d 3e 36 3a 56 be c4 98 46 3e 86 9b 28 bd
       0.2002018 -0.20920643 0.19394213 -0.041163944
000060 2e 04 81 bd 06 5e 23 be fa 49 a9 bd 14 bf 2f 3d
       -0.06299625 -0.15953836 -0.08266063 0.042906836
000070 58 fc ee bd 01 47 4f 3e d0 51 84 3d 29 bf 44 3e
       -0.116692245 0.2024193 0.06460917 0.19213547
